checkpoint_critic.pth (torch_old, 66649 bytes, 5 tensors)

fcs1.weight f4 [128, 24]
000000 a3 c2 88 bd 1d 73 19 3e 03 d9 3e bd d0 33 00 3c
       -0.06677749 0.14985318 -0.046593677 0.007824853
000010 a6 e5 20 be f4 a0 9f be c7 e4 6c 3d 7e 0c 5d bd
       -0.15712604 -0.31177485 0.057835367 -0.05396699
000020 51 14 9b bd 1e 4d 38 3e be 58 61 bd 82 ca e8 3c
       -0.075722344 0.17998168 -0.05501627 0.028416876
000030 0e 3f 61 bd 7b d0 96 be 3f 12 1f 3d 20 83 89 3c
       -0.054991774 -0.29455933 0.03883576 0.016786158
000040 7b 06 bc 3b 9e c3 70 3e 56 e1 ac bd ba ba 10 3d
       0.005738077 0.23512122 -0.08441417 0.035334326
000050 27 bf f3 3c 18 c5 c7 bd 0a d1 7d 3d fb cd 8d bc
       0.029754234 -0.097543895 0.061966933 -0.017310133
000060 4f be c1 3d 99 85 6d 3e e9 22 9e 3c 0a a5 34 3d
       0.094601266 0.23195495 0.019303756 0.044102706
000070 1c 68 cd 3e 14 6d 20 be 93 b4 c6 bc 78 12 81 bc
       0.40118492 -0.1566661 -0.024256026 -0.015755877
000080 9b da 5a 3d 20 32 49 3e 66 67 e4 3c 80 3f 34 3e
       0.053431135 0.19648027 0.027881335 0.17602348
000090 96 8b 81 3e 5c 9a b2 bd 8c 21 04 bd f5 3c 04 3e
       0.25301808 -0.08720848 -0.032258555 0.12913878
0000a0 8f f7 c3 bc 9d 52 10 3e eb 16 75 bc 88 46 8f bd
       -0.023921756 0.14094014 -0.014959077 -0.06995875
0000b0 cf 45 9d be 13 95 d0 bc 75 1f 69 bd 45 b6 ec 3c
       -0.30717322 -0.02546171 -0.056914765 0.028895507
0000c0 6e e4 52 3d 92 e7 ba 3d a1 63 31 bd c7 8f 69 3c
       0.05148738 0.091262 -0.043307904 0.014255471
0000d0 33 39 25 3d 72 b0 80 3e 7f af 66 3d 44 d4 c9 bc
       0.040337753 0.25134617 0.05631971 -0.024637349
0000e0 9c ec 20 bc 9c a6 4d 3e 9b d4 4b bd e2 ee fb 3c
       -0.009822037 0.20083088 -0.049763303 0.030753557
0000f0 42 da 0b bd 3a d7 06 3e 99 76 7f 3d f2 24 83 bd
       -0.034143694 0.1316804 0.062368963 -0.06403531
000100 04 8c 16 be 15 fd 77 3e 1d d6 39 3d 9a 13 98 3d
       -0.14701849 0.24217637 0.04537021 0.07425614
000110 82 f1 3f bd 70 03 d1 bf ef 2c 31 bd be b3 7a 3d
       -0.04686118 -1.6329174 -0.043255743 0.06120657
000120 fc 5a 9b 3b 4d 2a 00 bd dc 74 74 bc f6 fe 9d bd
       0.004741071 -0.03129034 -0.01492044 -0.077146456
000130 33 0b b6 3d 08 88 90 3c d3 70 1c 3c 04 b4 64 3d
       0.08888855 0.01764299 0.009548384 0.05583574
000140 51 20 7e 3d 6a ed 27 bd 34 95 05 bb 42 80 38 3d
       0.062042538 -0.0409979 -0.0020383121 0.04504419
000150 78 57 de bd a7 1f 0b 3e d2 c6 27 bc 80 11 ff bc
       -0.10856527 0.13586293 -0.010240274 -0.031136274
000160 58 af 81 3c ee 61 de bc ab 59 06 bd a8 f2 1f be
       0.01583068 -0.027146306 -0.032800358 -0.1561991
000170 e5 b0 cb be a5 38 0e 3e f5 31 3c 3c 61 1e cc bd
       -0.39783397 0.13888796 0.01148652 -0.09966732
000180 fa 97 20 3e c5 5f bd 3e 69 1f 15 3c b4 7c 9e bd
       0.15682974 0.3698713 0.009101727 -0.07738629
000190 6c af a5 3d 7b 34 b0 be a5 08 dd bd eb f7 5e bc
       0.080901 -0.3441504 -0.107926644 -0.013608913
0001a0 a2 2e 8b 3e 91 29 02 3e 53 69 60 bd 1b 3f 1e be
       0.27184016 0.12711169 -0.054787945 -0.1545376
0001b0 be 7e 48 3e 38 fe 93 3d 13 ad 9b bd fe 26 1d be
       0.19579598 0.07226223 -0.07601371 -0.15346906
0001c0 06 40 94 3e 75 bc 99 bc 4a fb 0b 3d ca 4a cb 3c
       0.28955096 -0.018766621 0.034175195 0.024815936
0001d0 a8 dd 8b 3e 00 34 b9 3d c1 5b 06 bd 2a 96 a8 bd
       0.27317548 0.09043121 -0.032802347 -0.082317665
0001e0 b3 68 b3 bc 44 5d 93 3e 32 80 73 3d b5 9c b2 bc
       -0.02190051 0.28782094 0.05944843 -0.02180324
0001f0 b0 8a 36 be e8 55 80 3d a6 ca 34 bd ed 90 90 3d
       -0.17826343 0.06266385 -0.044138573 0.070588924
000200 23 9e 60 3d 49 47 cb 3e 48 46 1d 3d b4 87 8e bd
       0.05483831 0.39702824 0.038397104 -0.06959477
000210 b0 e7 02 be 4e 5c 12 bb 78 04 68 bd e1 3a 22 bd
       -0.12783694 -0.002233285 -0.056644887 -0.039606933
000220 ef e1 38 3d cf 93 a5 3e 60 52 a0 bc 3f 3b d4 3d
       0.045137342 0.32339332 -0.01957053 0.10362863
000230 47 7b 16 3e d7 1c b6 be d1 b1 c6 bc d7 b3 21 3e
       0.14695464 -0.35568878 -0.024254711 0.1579126
000240 58 69 30 3c 0d de 8f bc b4 47 c7 bc de 46 0d 3b
       0.010767303 -0.017561937 -0.024326183 0.0021557133
000250 03 fe 3a 3e 6e b6 25 3f 5d 91 c4 3c 5d 44 c0 3b
       0.1826096 0.6473149 0.023995096 0.0058675245
000260 b0 4a 3c bc 35 fd 2e bd 28 f9 8d bc 73 ac 07 bd
       -0.011492416 -0.042721946 -0.017330721 -0.033123445
000270 df 2b 5f 3e fb d3 f2 bc 4a c1 a1 3c ab e3 14 3d
       0.21794079 -0.029642096 0.019745488 0.036349934
000280 0b a0 72 bc 02 4f cb 3c 68 06 7e bc f5 33 52 bd
       -0.014808665 0.024817947 -0.015504457 -0.05131908
000290 d3 ff 51 be 6e 10 1e bf e4 a3 97 3c 70 d7 3a 3d
       -0.20507745 -0.6174382 0.018510766 0.045615613
0002a0 e9 58 24 3a 8d 73 1b be 9e ae 0e 3b c4 96 d1 3c
       0.0006269352 -0.15180798 0.002177156 0.025584586
0002b0 66 90 96 3e f2 c6 62 3e 55 c4 27 bd 8d 46 80 3d
       0.29407042 0.22146204 -0.04095872 0.062634565
0002c0 b5 f7 46 3d 6e 9f b6 bd 88 ec be 3c 2e 21 9d bc
       0.048576076 -0.089171275 0.023306146 -0.01918086
0002d0 35 3c 8f 3e e1 bf b7 3d 5a 87 3a bc 1e 1b 23 bd
       0.27975622 0.08972145 -0.011384809 -0.039820783
0002e0 84 eb 0b 3e 2b 0a 9c ba 2d 83 9c 3c cb a1 85 3d
       0.13664061 -0.0011904886 0.019105518 0.06525
0002f0 11 c2 91 be 4e de ba be 0d ad d0 3a 08 35 0b 3e
       -0.28468373 -0.3649773 0.0015920714 0.13594449
000300 90 db 37 bc 9e 51 b5 bd 0a c0 46 ba 2a 61 c4 bc
       -0.011221781 -0.08853458 -0.00075817166 -0.023972113
000310 02 88 7c be 5a b1 d4 bc 79 26 9a 3c 4c 4d eb 3b
       -0.24661258 -0.025963474 0.018817173 0.0071808454
000320 5e 0d 89 bd cb d8 0a bd e8 16 31 3b dc 75 0d 3d
       -0.06692003 -0.033898156 0.002702171 0.034536228
000330 5f d1 fd bd 1e 64 a9 3c 6d cd ec 3c b8 dc b1 bd
       -0.1239345 0.020677622 0.028906548 -0.08684677
000340 b2 f7 c0 3c 64 db 6f be 7e 3c 8f 3c fe 95 79 3d
       0.02355561 -0.23423535 0.0174849 0.06093406
000350 1f a6 c9 3e e7 39 7a be 99 14 e0 bc 81 f6 33 ba
       0.39384553 -0.2443615 -0.027353572 -0.000686504
000360 45 51 c2 bc f8 66 3f 3d c0 d7 39 bd bf 8e ac 3d
       -0.023720393 0.046729058 -0.04537177 0.08425664
000370 cd 9c 68 3e c3 b2 88 3d 98 48 c4 3c 11 c9 ae bc
       0.22716065 0.06674721 0.023960397 -0.02133611
000380 6d a0 c5 3d 8e 55 0e 3d b4 93 2c 3d 3e 32 56 bd
       0.096497394 0.03474956 0.04213305 -0.05229401
000390 cc f2 9c bc b9 d5 8f 3d e0 6b 84 bd e9 c9 94 3d
       -0.019158743 0.07023186 -0.06465888 0.07265074
0003a0 d4 77 e4 3d 77 af 88 3e 55 c4 8f bd 4c c7 0f 3c
       0.11155668 0.2669637 -0.07019869 0.008775543
0003b0 8f fa e8 be dd c8 95 3d 98 d8 5a 3d 5d 4f 3d 3c
       -0.4550366 0.07313702 0.053429216 0.011554566
0003c0 14 6b ba bc c4 66 f0 3d d2 b4 22 3d 1f ab 3c 3b
       -0.022756137 0.11738351 0.039723225 0.002878852
0003d0 32 0c 22 3e f7 4e 96 3d 15 d5 17 bd 79 50 0b 3d
       0.15824965 0.0733928 -0.037068445 0.03401229
0003e0 62 84 8b 3d bd 53 2d 3e cd b6 c6 3a c7 e1 e2 3c
       0.068123594 0.16926475 0.001516068 0.02769555
0003f0 44 96 5e 3e 87 8b 23 b9 fc 85 25 3c ac 1c ab bd
       0.2173701 -0.0001559687 0.010102745 -0.08355078

fcs1.bias f4 [128]
000000 b7 29 56 bd f9 62 23 3d 6a cd 18 3e a3 da 37 be
       -0.052285876 0.03988931 0.14922109 -0.17954497
000010 fe ae b2 be 31 13 b2 bb 5f 89 0c 3f 61 73 bb 3e
       -0.34899133 -0.0054344167 0.5489711 0.36611465
000020 83 cd 65 be af 55 d5 bd 06 e1 26 3e 73 7f bf bd
       -0.22441678 -0.104167335 0.16296777 -0.09350481
000030 03 97 c5 3d 1c 8e 8a bd 00 b8 ec be d2 83 a8 be
       0.09647944 -0.067653865 -0.4623413 -0.3291307
000040 49 96 6f be 71 06 f7 bd c4 c9 26 be 03 1c 71 be
       -0.23397173 -0.120617755 -0.16287905 -0.23545842
000050 15 34 c4 be 1f 80 53 be 7a 4a 95 be b2 a3 03 be
       -0.38320985 -0.20654343 -0.29158384 -0.12855414
000060 17 b0 6e bd 9f 02 f6 bd c2 6f 3b bd af c8 d2 be
       -0.0582734 -0.12012219 -0.045760877 -0.41168734
000070 78 4d 1c 3e 71 d6 f8 bc 23 5a 99 b9 64 10 31 be
       0.15263927 -0.030375691 -0.0002924959 -0.17291409
000080 12 d7 dd bd e7 dd 24 3e 69 a8 d1 be 4d f6 d4 3d
       -0.10832037 0.16100274 -0.409488 0.10398541
000090 35 c5 3f be ca 2b 59 bd 5e a3 da be 91 9e 9b be
       -0.18727572 -0.053020276 -0.42702764 -0.30394414
0000a0 32 25 59 3e 3c 67 ba 3e 06 76 9c 3d 6f b8 05 bf
       0.21205595 0.36406887 0.07639699 -0.5223455
0000b0 9f f6 8d be eb 65 a1 3c 24 e3 9e 3e a8 43 82 3d
       -0.2772722 0.019701919 0.3103267 0.06360561
0000c0 66 73 b4 3e 05 68 0c be 2f 7f 5b bd 0b f2 17 3d
       0.35244292 -0.13711555 -0.05358809 0.037096065
0000d0 e9 0e 8a be 39 2f 66 3d 5b a6 6e be 3e 80 ef 3e
       -0.269645 0.05619738 -0.23305647 0.4677753
0000e0 d6 2e 20 bc 05 b3 b9 bd e1 c3 52 be 40 23 c0 3d
       -0.009776792 -0.090673484 -0.20582534 0.093817234
0000f0 c4 b0 39 be d7 e1 4f 3e d1 aa 14 bf dd 60 df 3d
       -0.18133837 0.20300995 -0.58073145 0.10907147
000100 46 58 e4 bd 39 15 69 3e e1 38 90 3e 36 d5 ea 3d
       -0.11149649 0.22762002 0.28168395 0.11466448
000110 10 0e bc bd 9a 5e 4f 3e 00 b8 72 be 1a ce 84 be
       -0.0918237 0.20250931 -0.23703003 -0.25938493
000120 fb 9c a4 bc 46 11 14 3e 23 da eb bd c5 46 91 3d
       -0.020094385 0.14459714 -0.11516216 0.07093576
000130 6a 57 fa be 0b 86 d5 be 70 61 1f bc 09 15 8e bd
       -0.48894817 -0.4170383 -0.009727821 -0.06937606
000140 dc aa 04 bf 85 01 df 3d 4c b6 82 3e c8 e9 be be
       -0.5182321 0.10888962 0.25529706 -0.37287736
000150 91 2f cc bc 55 73 cd bd 30 bc 2a 3d c8 f6 9f 3e
       -0.024925025 -0.100317635 0.041683376 0.31242967
000160 d5 07 01 bf fa b2 16 3d a8 dd 5b bd 67 3f bb be
       -0.50402576 0.03679178 -0.053678185 -0.3657181
000170 f4 82 6b bd 4e 34 ed be b7 76 4c be a7 64 17 be
       -0.057497934 -0.46328968 -0.19967161 -0.1478449
000180 e2 0f d2 3d 03 1f 61 3d d6 fd 54 3d 5f 3c 87 3e
       0.10256936 0.054961216 0.05199989 0.26413247
000190 fa 1e 77 3e 52 18 29 3e a6 9e 85 be 7a a1 0a 3d
       0.2413291 0.16513184 -0.26097602 0.033845402
0001a0 b0 1d 1d be 11 3d 65 3e a5 6a 84 bd f6 66 de 3d
       -0.15343356 0.22386576 -0.06465653 0.10859482
0001b0 0a ef ca bd 1a 26 71 be f3 9e c5 bd 31 ae dc bc
       -0.09908874 -0.23549691 -0.09649458 -0.02693853
0001c0 2f a3 7f bc 91 a1 01 3d 03 15 01 3e 53 1b ab 3e
       -0.015602871 0.031648222 0.12605672 0.33419284
0001d0 11 f5 dd be a2 18 3c bc 67 02 35 be 79 21 41 3f
       -0.43351033 -0.011480482 -0.17676698 0.754417
0001e0 52 0f 63 be 91 77 b3 be df 68 1e 3e a1 27 58 bc
       -0.22173813 -0.3505216 0.15469693 -0.013193042
0001f0 aa 46 2c 3e fe cc 3d bd 5d 4d f9 bd 67 95 63 3d
       0.16823831 -0.046338074 -0.12172959 0.055562403

fc2.weight f4 [100, 130]
000000 93 2f 28 3d 57 55 4b bd 75 f5 c0 bd f7 b5 88 be
       0.041060995 -0.049641933 -0.09421817 -0.26701328
000010 bd 19 e5 bc c2 49 63 3e ab 5d 4d bd 2d 6e c0 be
       -0.027966375 0.22196105 -0.050138157 -0.37584057
000020 f5 ed a9 bd 47 ab dc 3d 78 11 40 be a2 88 12 be
       -0.0829734 0.10774856 -0.18756664 -0.14309934
000030 38 2e 0a 3e 54 02 49 bd c6 7d 96 be 11 25 e6 bd
       0.13494194 -0.049074486 -0.29392833 -0.112375386
000040 90 cc 3d be 73 ac 98 bd 9d ec ae be 8d 4e 0f bd
       -0.18535066 -0.07454767 -0.34164897 -0.03498702
000050 93 eb 7d be 6c 83 ee bb f8 05 a0 bb 35 a8 9d be
       -0.24796896 -0.0072788503 -0.004883524 -0.30792394
000060 ed a8 81 bd b1 64 b0 3d 53 c3 61 3c a9 15 4a 3e
       -0.06331048 0.08612955 0.013779479 0.19734825
000070 04 1d 59 bd 13 fc 98 3d 67 0c 89 be c1 d0 da bc
       -0.053006187 0.07469954 -0.26767275 -0.02671087
000080 67 41 6a be 80 11 91 bd 49 ec 25 bd 41 91 dd bd
       -0.22876512 -0.07083416 -0.040508542 -0.108187206
000090 a4 70 4e be b4 15 4f 3d 8f 71 ca be c0 ea 8a bd
       -0.20160156 0.050557807 -0.39539763 -0.06783056
0000a0 d5 60 a4 3c 5c ba 44 be 76 f4 3b 3d 2d 4a 81 be
       0.020065704 -0.19211715 0.045887433 -0.25251904
0000b0 02 78 72 3d 95 ce 13 bd 6b 78 49 3d 80 c2 14 bf
       0.05919648 -0.036085684 0.049187105 -0.58109283
0000c0 46 93 22 3d a3 27 97 3d d3 79 d6 3d 5c eb e0 be
       0.039691232 0.07380607 0.10472455 -0.43929565
0000d0 1f dd ca 3d 01 32 70 be 6b f5 3e bd 71 1a 5b bd
       0.09905457 -0.23456575 -0.046620768 -0.053492013
0000e0 17 39 bd 3d 02 14 f4 3c b9 df 47 3d 09 4e a6 bd
       0.09239405 0.029794697 0.048797343 -0.08120353
0000f0 90 ca 95 be 6b 0c eb bc fc 9c bf be bd b2 8a be
       -0.29256105 -0.028692445 -0.37424457 -0.2708949
000100 97 c1 43 be 54 ff 08 3e 42 57 bc 3b d9 ae 97 be
       -0.19116817 0.1337865 0.0057477066 -0.29625586
000110 10 2a 54 3e cf d0 da 3d cf 6e 68 3e df b4 a1 bd
       0.2071917 0.10684358 0.2269852 -0.078958265
000120 59 71 2f be 0a 1e 8a 3e ca 8e bc be 10 b5 6c be
       -0.17133082 0.26976043 -0.3682769 -0.23115945
000130 de 06 82 be b6 59 27 3d c4 26 05 3e e7 a8 0d 3e
       -0.25395864 0.04085704 0.13003069 0.13833962
000140 63 cd 1c bd d9 65 9a be 78 0d ab bd 80 b5 9d bc
       -0.03828181 -0.3015583 -0.08352178 -0.019251585
000150 34 46 b4 3d e3 01 7a be c3 53 6d be c3 f9 fc bc
       0.08802453 -0.24414782 -0.23176484 -0.030880814
000160 57 02 29 bf 6d ad b8 bd 08 7b ef be 64 c0 20 3e
       -0.66019195 -0.09017453 -0.46773553 0.15698391
000170 b0 75 44 3e e1 95 63 bd 38 67 0f bd a5 1e 53 bd
       0.19185519 -0.055562858 -0.035010546 -0.051542897
000180 22 62 d9 bd c8 57 b4 be 55 3f 11 3e ec 21 12 be
       -0.106144205 -0.35223222 0.14184316 -0.14270753
000190 77 b7 a3 be b0 ea f6 be a9 0b c8 3c 23 ab 0c bd
       -0.3197591 -0.48225927 0.024419622 -0.034342896
0001a0 30 6c ac 3a ca b7 ae 3d 2c 63 e8 bd d1 97 12 bd
       0.0013154801 0.08531149 -0.113470405 -0.035789315
0001b0 c4 e0 0b be cc 8b 00 bd 16 ec 03 bf 3f f0 7a be
       -0.1365996 -0.03138332 -0.51532114 -0.24505709
0001c0 f6 60 30 3d 8e 71 6b 3d 3b c7 8f 3d 9d 22 16 3c
       0.04306122 0.05748134 0.07020422 0.009163526
0001d0 8f 54 ed be 5b f1 22 bd f2 57 2a 3e e3 ae 0d 3e
       -0.46353576 -0.039780956 0.16635111 0.13836245
0001e0 a5 89 9a 3e 41 64 12 3e fe 66 61 bd c3 ee 2d 3e
       0.3018314 0.14296056 -0.05502986 0.16985612
0001f0 91 0a 31 3c 37 b1 0b be 4b 18 56 be 6b 66 82 3d
       0.010805742 -0.13641821 -0.20907705 0.06367191
000200 b7 b1 65 3e ab c3 cb 3c 27 79 a9 bc e3 32 07 bf
       0.22431074 0.024873575 -0.020687653 -0.5281202
000210 29 61 51 bf 5e 37 e1 bb ec 2c af be 41 e0 47 3c
       -0.8178888 -0.0068730554 -0.3421396 0.012199462
000220 e9 20 dc 3d fc a7 56 3d ac f7 78 be 40 2e 8e 3c
       0.107484646 0.052406296 -0.2431323 0.017356038
000230 e1 00 a9 3d 17 48 9e bc 0f e8 96 bd f4 5e 5f 3c
       0.08252121 -0.019321484 -0.073684804 0.013633478
000240 ee 4a 91 be 8e 17 7a 3d cf 06 8b be 78 4b ad be
       -0.2837748 0.06105762 -0.27153632 -0.3384664
000250 6b df 36 be f2 15 25 bf dd 8d e3 bd b4 37 e2 bd
       -0.17858665 -0.6448661 -0.11111043 -0.11045781
000260 73 80 68 bd d5 57 5b 3c fb 3c b9 bd 89 dc 5d 3d
       -0.056763124 0.01338764 -0.09044834 0.054165397
000270 6c be eb 3d 3f 71 39 be 54 fe 66 3d 68 b0 17 bc
       0.115109295 -0.18109606 0.05639489 -0.009258367
000280 a8 87 86 be f5 01 82 bd b5 3e 03 be 22 bf 72 bd
       -0.26275373 -0.063480295 -0.1281689 -0.05926431
000290 7d 8e 4d bd 0f b4 a8 be 01 31 e6 bb 11 04 48 3e
       -0.050184716 -0.32949874 -0.0070248847 0.19532801
0002a0 09 65 54 bd 61 be ae bd fe 75 d9 3d 36 d4 f1 be
       -0.051854167 -0.08532406 0.10618208 -0.47232217
0002b0 f4 fa 4e be 7f e0 4e 3d 2e 9f de bd 9c 03 64 3e
       -0.20212919 0.050507065 -0.10870205 0.22267002
0002c0 dc ac 18 be 39 86 54 3d 8e b6 7d 3e 80 1f f1 be
       -0.1490969 0.051885817 0.2477667 -0.47094345
0002d0 ed 85 e6 bd cc b4 0e bf 7b e7 0b be 31 cd 1a bd
       -0.11256013 -0.55744624 -0.13662522 -0.037793342
0002e0 48 25 66 be ee 48 c2 be 9c 18 a2 be 37 4c 01 bf
       -0.22475159 -0.37946266 -0.316594 -0.5050692
0002f0 de 0e 82 3c f0 5c 1c 3e c8 b2 ed bd 07 22 18 be
       0.01587623 0.15269828 -0.116063654 -0.1485673
000300 49 1b 93 3d 03 c1 4d 3e cd e1 0a 3e 19 33 c2 bb
       0.071829386 0.2009316 0.13562699 -0.0059265015
000310 11 4f 13 3c 6f b6 f5 3d 80 f1 19 be 36 ee 38 3d
       0.008991019 0.11997687 -0.15033531 0.04514905
000320 a9 6b 8d bd 24 95 e5 bd 2b 7d 25 3e b2 c6 03 bd
       -0.069053 -0.11210087 0.16161029 -0.032171912
000330 43 2c a8 bd 19 4e 49 3c b1 62 c4 be 34 4d 73 bc
       -0.08211567 0.012286686 -0.38356546 -0.01484995
000340 fb 8e d7 be ab f2 ae bd 68 65 28 3c cb 19 88 3d
       -0.42101273 -0.08542379 0.010278083 0.066455446
000350 6a 02 fb 3b 24 7c 53 be 83 8f 75 bd 4d f6 29 bc
       0.0076602 -0.20652825 -0.059951317 -0.010373664
000360 d9 a9 16 be 43 93 04 3e b0 f9 1b be 89 60 f8 be
       -0.14713229 0.12946801 -0.15231967 -0.4851115
000370 c9 ac ee bb 04 c7 9a bf 19 f5 b0 bd 60 4d fe 39
       -0.007283781 -1.2091985 -0.08640499 0.00048504304
000380 85 4b 86 be 6e 14 95 3d 3d bf e8 bb d1 75 56 3d
       -0.26229492 0.07279287 -0.0071028755 0.052358452
000390 8d 1d 4a be c4 c1 2a bc 80 c3 42 3c 65 a5 1e bf
       -0.19737835 -0.010422174 0.011887431 -0.6197112
0003a0 cd 64 56 3e 4a 63 0d bf 5b 0a 3b be 96 35 09 be
       0.2093689 -0.5522963 -0.18265669 -0.13399348
0003b0 2d fa ea 3c 43 a4 8f 3d d0 42 00 be 6a fe 8f bc
       0.028683746 0.07013752 -0.12525487 -0.017577369
0003c0 eb 92 3d be bf cd 03 3e f8 62 25 be 10 57 a3 bd
       -0.18513076 0.12871455 -0.16151035 -0.0797559
0003d0 b6 45 6f be 32 df 4a bd 50 0d 81 be 82 83 00 bd
       -0.23366436 -0.049529262 -0.2520547 -0.031375416
0003e0 55 97 cd bd 50 31 f6 bf 77 5b ac be ef db 47 be
       -0.1003863 -1.9233799 -0.33663532 -0.19517492
0003f0 34 cf 6b bd d6 cb 03 bf 81 35 71 3d 7c a6 2d bd
       -0.05757065 -0.51482904 0.058888916 -0.0423951

fc2.bias f4 [100]
000000 1b fc 65 3d 83 2c cf 3c 06 6c 53 3e 40 24 2a 3d
       0.05614863 0.02528978 0.20646676 0.041538477
000010 1e bf e8 bd 66 cd 61 be 9f 20 14 bd a3 c6 4d 3d
       -0.11364578 -0.2205101 -0.036163922 0.050238263
000020 75 41 28 be 2d a0 c4 bd 3a 15 c7 bd 06 58 61 bd
       -0.1643122 -0.096008636 -0.097208455 -0.055015586
000030 47 31 78 bd 67 8f a7 3e c1 ca 11 3e 2e 3b e7 bd
       -0.06059387 0.32726595 0.142375 -0.112905845
000040 32 f3 f1 bc ef 2b 82 3d 91 bf b8 bd a8 da 3f be
       -0.02953491 0.06356036 -0.090209134 -0.18735754
000050 27 92 dd bd 3f 65 90 be d9 96 97 3c 15 3d 5d 3d
       -0.10818892 -0.28202245 0.018504547 0.05401333
000060 a4 ee b9 bc 13 16 9a 3c 77 17 b6 bc cf b1 9e 3d
       -0.0226968 0.018809354 -0.022227986 0.07748758
000070 50 26 9e 3d e4 b0 8c 3d 39 b0 c7 bd 38 0d de bd
       0.07722151 0.06869677 -0.09750409 -0.10842365
000080 74 67 ad bd fa 05 ca bd 90 f5 9c 3e 28 ac d6 3d
       -0.08466998 -0.09864421 0.306561 0.10482055
000090 a9 4e 3c be 76 d1 09 be 79 2a a6 bd ec 51 e5 bd
       -0.18389381 -0.1345881 -0.0811357 -0.11197266
0000a0 46 22 3f be 15 80 b9 be 35 f1 e9 3b cc 9d 27 be
       -0.18665418 -0.3623053 0.00713935 -0.16368788
0000b0 e8 52 c9 bd 8c 9c d2 be f7 74 5c bd 7f 7f a6 3e
       -0.09830266 -0.4113506 -0.053822484 0.32519147
0000c0 b4 cc 83 bd 5e e5 0b 3d aa 4b d4 3d 35 7d a4 3d
       -0.064355284 0.03415429 0.10365994 0.08031694
0000d0 2f 15 38 3e d9 c1 74 bc a9 bc 2e 3d 3f d1 57 bd
       0.17976831 -0.014938795 0.04266039 -0.052689787
0000e0 01 e3 96 be 8f 8a 1e 3b 31 e3 78 3c b6 32 98 3e
       -0.29470065 0.0024191474 0.015190885 0.2972619
0000f0 e3 3d 16 be 9d 3d 98 3d cc 05 94 3d 1f 6d 6b be
       -0.14672045 0.07433627 0.07227668 -0.22990845
000100 54 92 22 be d4 18 aa 3d 53 5c c8 bd f1 51 39 3c
       -0.15876132 0.08305517 -0.097832344 0.01131104
000110 bb 1a 66 3d 8d 82 24 bc 82 cd 06 3e bf 0f a7 bd
       0.056177836 -0.010040891 0.13164333 -0.081573
000120 3d 2c c5 bd 8f 26 b4 bd e7 45 f8 bd 00 ab a6 3c
       -0.096275784 -0.08796417 -0.12122708 0.020345211
000130 00 54 10 bf 54 7e b1 3d ef 03 d4 bd 13 f4 ae bd
       -0.56378174 0.08666673 -0.10352313 -0.08542647
000140 db b6 ed 3c 58 b2 9f bc fc d7 0e be e2 3f 19 3d
       0.029017856 -0.01949422 -0.13949579 0.03741444
000150 b1 43 19 bd 92 68 00 bd 69 31 57 3d 90 35 39 bd
       -0.03741807 -0.031349726 0.052537356 -0.045217097
000160 fe 24 91 bc e5 40 4a bd 66 71 5a be ff b8 d8 bc
       -0.017717835 -0.049378294 -0.2133232 -0.0264554
000170 e4 56 02 3e 61 b3 21 be 6e ca 33 3e 27 41 d4 3d
       0.12728459 -0.15791084 0.1755769 0.10363989
000180 0f bf f9 bd 01 39 f7 3d 3e 5c ca ba eb 8b fa 3d
       -0.12194645 0.120714195 -0.0015438867 0.122337185

fc3.weight f4 [1, 100]
000000 de a0 00 3d 90 27 bd 3d a0 b4 82 3d 0e d8 5b bd
       0.031403415 0.092360616 0.06382108 -0.053672843
000010 cd 2f 6a bd d9 24 1c bd 69 83 84 3c ad 2c 12 3d
       -0.057174493 -0.03812108 0.016175942 0.035687137
000020 49 d2 9b bd 62 39 1e 3e 38 6a b3 bc 22 4c 9e 3e
       -0.07608468 0.15451577 -0.021901235 0.3091746
000030 63 46 f0 bd 96 fb 62 3d e9 13 b6 3c 51 02 69 bd
       -0.11732175 0.055415712 0.02222629 -0.056886975
000040 a0 66 71 bd e2 8a 4f 3d 8d a2 72 bd d9 d7 ce 3c
       -0.05893576 0.05066956 -0.05923705 0.025249409
000050 dc 44 99 bd c6 50 b0 bc 95 50 34 bd 07 b5 57 3d
       -0.07483837 -0.02152289 -0.04402216 0.052662876
000060 f0 9d 89 3e b8 a2 1f 3d de cb 7d 3e 33 cc cd bd
       0.2687831 0.03897354 0.247848 -0.100487135
000070 a8 af f4 bd 5e fa b6 3d 01 1d 96 3d cf 2d 84 bd
       -0.11947566 0.089344725 0.07329751 -0.0645405
000080 5e c2 69 3d db 16 45 3c 64 27 8a 3c 58 5b 57 3e
       0.05707013 0.012029375 0.016864486 0.21030939
000090 92 b3 81 3d 2c b9 f7 ba 17 f7 01 be d7 e9 41 bd
       0.063330784 -0.001889979 -0.12691914 -0.047342148
0000a0 1a 8f e5 bb cd fb 6f 3d ba 17 fa 3d 93 10 f3 bc
       -0.0070055844 0.058589745 0.12211557 -0.02967099
0000b0 57 23 9a be 9c 64 c2 bc 73 86 b9 3d eb 6c d6 3c
       -0.30105087 -0.023729615 0.09058847 0.026174983
0000c0 17 7d ef bc 95 da a7 3d b1 80 38 3d 51 52 4d 3e
       -0.029234452 0.08195988 0.045044605 0.20050932
0000d0 88 bd 0b 3d 1b 0e 3b 3d 15 a0 64 3c ca 33 05 3e
       0.034116298 0.04566775 0.013954182 0.13008037
0000e0 9e 75 27 be a9 44 e5 3d aa 22 61 3d 6b a2 30 3d
       -0.16353461 0.111947365 0.0549647 0.043123644
0000f0 03 82 ba bc 6c 55 7e bd 34 f9 03 3e 14 55 5c bc
       -0.022767073 -0.062093183 0.12888032 -0.013448019
000100 19 1a 2a 3e 51 ba 01 3e 2d 50 7b 3c 30 22 b2 3c
       0.16611518 0.1266873 0.01533894 0.021744817
000110 52 db cf 3d d6 06 e3 bb 9d ef 53 3c d7 df 8e bd
       0.10149254 -0.006928305 0.012935546 -0.06976288
000120 31 59 0f be f5 f2 f3 bc af 91 db bc dc 18 14 bd
       -0.13998868 -0.029778937 -0.026802866 -0.03615652
000130 d5 b5 b4 bd 89 13 6c 3c 3a 7b 91 be 60 a1 60 3d
       -0.08823744 0.014408954 -0.28414327 0.0548414
000140 b9 d2 7b 3d 4f ca 54 3d 00 6f 9c 3d 99 2d c9 bc
       0.061480258 0.05195075 0.07638359 -0.024557875
000150 a7 74 5f bd 7a f2 97 3c e9 ec 86 3d 0c fd 50 be
       -0.054554608 0.018548239 0.06588156 -0.2040903
000160 19 3c 9c 3d 1c 36 ec bc 83 0b 88 bc 06 72 89 bd
       0.0762865 -0.028834395 -0.016607052 -0.06711201
000170 57 f1 a5 3c ed ff 62 3e d4 c3 64 3d 66 d0 90 bd
       0.020256681 0.2216794 0.05585082 -0.07070999
000180 38 4b f5 bc c4 8b 91 3d 72 06 00 bd f7 6b a6 bd
       -0.029943094 0.07106736 -0.031256147 -0.081260614
