checkpoint_actor.pth (torch_old, 66250 bytes, 6 tensors)

fc1.weight f4 [128, 24]
000000 4a bf 64 3e 62 a8 dd 3e 49 fa 87 3d 8e f5 b6 bd
       0.22338596 0.43292528 0.06639535 -0.089335546
000010 cf 61 2e be a9 91 a8 bc 94 8a 93 bc 2c e4 c9 bc
       -0.17029499 -0.020577269 -0.018010415 -0.024644934
000020 50 0d 73 3e 2b 62 e0 3e 54 1e b1 3d 46 7a 8c 3c
       0.23735547 0.43824896 0.08648363 0.017148148
000030 13 c5 e2 bd cc 6e 4e 3c 14 b5 80 3b 78 0b b7 3d
       -0.11072745 0.012599658 0.003927836 0.08937734
000040 60 41 a9 3e f5 4b 0e 3f 34 28 d7 3c 49 1c 32 3e
       0.3305769 0.5558465 0.026264288 0.17393602
000050 e0 43 53 be ba 5c 2b 3d 98 60 55 3b 71 da e6 3d
       -0.20631361 0.041836478 0.0032558795 0.11272133
000060 26 c0 07 3d 1d df 9b be 7e d2 a9 bd 3f ac 11 3b
       0.03314223 -0.3044366 -0.08292101 0.002222791
000070 d1 e4 2b 3e 90 77 1e 3e 1e 21 94 3d 5e 3d b8 3b
       0.16786505 0.15475297 0.07232879 0.00562255
000080 48 57 5d bc bf d0 77 be c6 f8 bd bd 97 da 7d 3e
       -0.013509579 -0.24200724 -0.092759654 0.24790417
000090 06 27 20 3e 22 1b 44 3d fd 73 c5 bd ed fe 84 3e
       0.15639886 0.04787744 -0.09641264 0.25975743
0000a0 85 78 88 bc 13 e3 62 be b8 19 d0 bd d9 34 97 3e
       -0.01665903 -0.22156934 -0.101611555 0.29532507
0000b0 70 89 92 3d 66 14 a2 bd b8 0d c2 bc 30 a6 91 3e
       0.071551204 -0.07914047 -0.023688182 0.28447104
0000c0 18 53 c5 3e c4 10 72 3d 79 dc 7c 3d 17 07 1d bd
       0.38539958 0.05909802 0.061733697 -0.03833684
0000d0 cd 3e 0c be 70 e0 12 3e 35 5f 30 bd e0 6b 01 3b
       -0.13695832 0.14343429 -0.043059547 0.0019748136
0000e0 a2 1e 6a 3e f7 98 28 3e da ce 9d 3b 8c fa 4f 3d
       0.22863248 0.16464601 0.0048159184 0.05077605
0000f0 72 56 6f bc 43 58 dd 3d 39 38 26 3c 8d 87 d4 3d
       -0.0146080125 0.1080785 0.01014524 0.10377417
000100 73 bc 11 3d f5 fe 17 3e b5 17 56 3d 61 cb 79 3e
       0.03558011 0.14843352 0.052268703 0.24393989
000110 e3 6a 49 be e2 9e 82 3c ab 17 e8 bc 14 22 89 3e
       -0.1966968 0.015944902 -0.028331598 0.26783812
000120 fd a3 a1 3d f2 38 1d 3d bc 20 67 3d 13 f5 c6 bd
       0.078926064 0.038384385 0.056427702 -0.09714713
000130 3a 3c 2a 3e 94 f5 5b be ba 4f a3 3d 5d a5 c2 bd
       0.16624537 -0.214804 0.07974191 -0.09504197
000140 a9 10 b1 bd 70 66 ff bc 4f 9a 3b bb 5e a6 11 3d
       -0.08645756 -0.031176776 -0.002862591 0.03555905
000150 6a bd 7e 3e 20 88 ea be 79 10 7b bd 6c cb b6 3d
       0.24876943 -0.4580698 -0.061295006 0.089255184
000160 d8 3c c5 3c 37 8d bb 3d a4 49 f7 bc 3a 3d dd 3d
       0.024076864 0.09157794 -0.030186482 0.10802694
000170 bf 5f a8 3e b4 72 e6 be de f6 ca 3d eb 43 32 3d
       0.32885548 -0.45009387 0.099103674 0.043521803
000180 f6 74 43 bd eb 26 03 bf 29 63 ee 3d c8 cf 82 be
       -0.047718965 -0.5123126 0.11640007 -0.2554915
000190 56 32 3b 3e a2 4f 94 bd 68 97 4e bc 56 32 29 be
       0.1828092 -0.07241751 -0.01260934 -0.16523108
0001a0 7d 7b 36 bd de af ee be 5a fc 2c 3d 0a ee a2 bd
       -0.04455136 -0.4661855 0.04223285 -0.079555586
0001b0 94 a3 2f 3e 3d f2 06 3e e1 87 11 bd 0b f6 36 be
       0.17152244 0.13178344 -0.035529975 -0.17867295
0001c0 88 e3 33 3d 2f 5a de be f7 07 9c bd e9 55 11 bd
       0.043918163 -0.4342818 -0.07618707 -0.03548232
0001d0 47 4f 7c 3e 21 5e 97 3e 59 ab 0a bd ea 6a 93 bc
       0.24639617 0.29564002 -0.033854816 -0.017995317
0001e0 e9 86 92 bd c0 97 14 be 18 d3 a1 3d 7a fb 34 3d
       -0.07154638 -0.14511013 0.07901591 0.04418514
0001f0 44 2e 8d 3d f4 01 05 bc 47 02 49 bd 88 cc 2d 3e
       0.0689359 -0.008118141 -0.049074437 0.16972554
000200 16 f8 dc bd 00 79 83 be aa d6 bf bd a0 ae af 3c
       -0.10789506 -0.25678253 -0.09367116 0.021445572
000210 4c e0 3b be 6e ed 3e 3c ba b3 c1 3c c7 00 39 3e
       -0.18347281 0.011653287 0.02364527 0.18066703
000220 06 3a 99 bc b4 4c 44 be 38 f1 86 3b 30 bb 6f bc
       -0.018704426 -0.19169885 0.004118111 -0.014632031
000230 78 ef 82 be 55 ea be bc 94 67 d5 bc db 66 07 3d
       -0.25573325 -0.023305098 -0.026050366 0.033057075
000240 73 3b 45 be 0b ec 2b 3b 38 81 62 3c 90 1f aa 3d
       -0.1926096 0.0026233222 0.013824753 0.08306801
000250 d2 34 3a be 17 c5 57 3d 71 ba 46 bd 51 ce 8f 3d
       -0.18184212 0.052678194 -0.048517648 0.070217736
000260 d5 17 89 bd 38 d9 d6 3d cc 2b cc bc a2 4c 9d 3c
       -0.06693999 0.1049065 -0.024923228 0.01920158
000270 3d 7b c9 bc 9e 11 db be d0 61 74 3d 3d 44 e4 3d
       -0.024594897 -0.42786878 0.059663594 0.11145828
000280 2c 32 8a bd 4d 99 0a 3e 70 b2 df 3c 43 b2 1b 3d
       -0.06747851 0.13535042 0.027306765 0.0380118
000290 71 73 6b 3c 9e a7 82 bf 0a 16 83 3c 6c 10 20 3e
       0.014370785 -1.0207403 0.01600172 0.15631264
0002a0 4f d7 6d bd a5 97 56 3e 4f fa df bc b9 a4 cf bc
       -0.058066662 0.20956285 -0.027341036 -0.0253471
0002b0 c7 e7 37 be 64 48 50 be 2e d8 03 3d 79 e5 51 3c
       -0.1795951 -0.20340115 0.032188587 0.012811058
0002c0 76 b7 e5 3d 44 b3 8e 3e a8 b1 18 bc 08 e8 da 3d
       0.11216633 0.27871144 -0.0093197 0.10688788
0002d0 ba 5f b9 bd 81 57 c4 be db 6c 2e bd aa a4 61 3d
       -0.090514615 -0.3834801 -0.04258428 0.055088677
0002e0 ba 1f e5 bb 36 9c 7e 3e db 03 55 3c 98 73 02 be
       -0.0069923075 0.24864277 0.0130014075 -0.12739408
0002f0 83 fd c0 bd 53 90 fe be 24 be c7 3d f3 a5 62 3c
       -0.094233535 -0.49719486 0.09753063 0.013833511
000300 a3 d1 26 bd 06 25 9b be 34 16 68 3c 78 44 88 3d
       -0.04072727 -0.30301684 0.01416545 0.066536844
000310 c3 b1 c0 bd 70 87 70 3e e4 3b 4f 3c b9 99 fb 3d
       -0.09408905 0.23489165 0.012648556 0.1228518
000320 7f 81 c9 3c a6 c1 61 be 29 b2 ee bd 97 78 f9 3d
       0.024597881 -0.22046527 -0.11655075 0.12181204
000330 06 57 04 3c 98 c4 5c 3e 23 1f 83 3a 35 f4 5f bc
       0.008077389 0.2155937 0.0010003786 -0.013669063
000340 61 b3 60 3c d5 c6 25 be 63 8f 6e 3d bf 00 23 3e
       0.013714642 -0.1618913 0.058242213 0.15918253
000350 17 87 17 be a6 2a 48 bd 4f 8e 95 3c 89 ab 1f 3e
       -0.14797626 -0.048868798 0.018256335 0.15592779
000360 10 67 5a 3d 9c 8b 84 3e d8 4a fc bb 32 b9 aa 3d
       0.053320944 0.25887764 -0.0076993518 0.083361045
000370 22 8b 37 3c 2c 27 0b 3e 77 18 d3 3d 41 68 1c 3e
       0.011202605 0.13589162 0.10307401 0.15274145
000380 d4 a5 e9 3b d6 ee aa 3e 1b 06 e2 bc 17 31 d6 3d
       0.007130364 0.33385342 -0.027590802 0.10458582
000390 6e 0b 6f 3e 84 6d 60 3d af 5e 40 bd 66 91 01 3e
       0.23344204 0.054791942 -0.046965297 0.12653121
0003a0 95 68 9a 3d d0 50 b4 3e 53 91 85 bd 10 36 90 3d
       0.07539479 0.35217905 -0.06521859 0.070415616
0003b0 e3 64 0d 3f af fc ed 3d ba 3b 25 bd b8 44 10 3e
       0.55232066 0.11620461 -0.040340163 0.14088714
0003c0 a9 b2 26 bd 31 7b ed 3c 58 d8 ac 3d 4d 74 54 bd
       -0.040697727 0.028989406 0.08439702 -0.051868726
0003d0 dd 45 c1 bc a5 30 90 bd 9b 36 0f 3e 0b 26 d3 3c
       -0.023592884 -0.07040528 0.13985674 0.025774976
0003e0 a0 26 30 bd 4c b5 02 be 45 bf 8e 38 99 aa e8 bc
       -0.043005586 -0.12764472 6.8067144e-05 -0.02840166
0003f0 27 e6 fa 3c 6a 0f 93 bd a5 cd 91 bd 2a 89 07 bd
       0.030627323 -0.071806744 -0.07119302 -0.033089794

fc1.bias f4 [128]
000000 40 cf 91 be d3 d1 05 bd bc 94 b4 3e 09 00 86 3e
       -0.28478432 -0.032670807 0.35269725 0.26171902
000010 14 d2 42 3e 79 d8 85 3c 01 99 22 bd 67 81 a1 bd
       0.19025451 0.016338574 -0.039696697 -0.0788601
000020 02 ff 57 3d 68 97 9a be c1 75 17 be 9b 97 c5 bd
       0.05273343 -0.3019364 -0.14791013 -0.09648057
000030 55 97 bc bc 3a b4 c7 3d bd d5 ba bc 64 c2 99 bc
       -0.02302138 0.09751172 -0.022806996 -0.01876945
000040 d8 5c 3e bd 52 03 9e 3e 40 1a 8c bd 6e 8d 60 3e
       -0.04647526 0.30861908 -0.06840944 0.21928951
000050 c7 3b 80 bd 65 b4 bc 3d 9c 9a dc bd 59 76 af be
       -0.062614016 0.09214095 -0.10771677 -0.3426998
000060 60 64 2a 3d 30 32 66 be 77 9d 6c 3d b1 58 6d 3c
       0.04159963 -0.22480083 0.057767358 0.014486478
000070 09 c4 15 3e cc 91 34 be ca 7d 77 be 7e 5a 31 3e
       0.14625563 -0.17633742 -0.24169078 0.17319676
000080 43 1a 02 be cd 87 28 3d 94 87 0b 3e 26 7a b6 3d
       -0.1270533 0.041145135 0.13625938 0.08910017
000090 cb e6 d3 3d 12 74 c9 bd 41 6c da bd a4 83 b2 bd
       0.10346755 -0.09836592 -0.10665179 -0.08716515
0000a0 23 80 c1 bd 11 4d b7 bd a2 84 22 bd 83 c2 56 3e
       -0.09448268 -0.08950246 -0.03967727 0.20972638
0000b0 d2 b1 47 be 2b 4f 73 be 60 3f 09 3e 14 f4 f5 bd
       -0.19501427 -0.23760669 0.13403082 -0.12009445
0000c0 d2 40 5d 3e 5e f8 fe 3d fa 9a 35 3e 59 c1 96 bd
       0.21606758 0.12449716 0.177349 -0.07361097
0000d0 a0 18 a0 be e6 1a 0c 3e 4d ac 5b 3d 39 f5 06 3d
       -0.31268787 0.13682136 0.053631116 0.032948706
0000e0 cd a5 81 3a 32 a2 5d be a3 8f 22 3d ec 39 0c 3e
       0.0009891331 -0.21643904 0.039687764 0.1369397
0000f0 84 96 81 3d 66 32 ef 3d 6f 49 d1 bd 8a e1 45 3d
       0.06327537 0.116795346 -0.102190845 0.048310794
000100 f8 7a eb 3d 31 6a 4d 3e 5f 07 9b bd f8 84 98 bd
       0.11498064 0.2006004 -0.07569765 -0.07447237
000110 c3 1b 11 3d 06 53 b4 3d 53 ce ad be 5e 69 a1 3d
       0.035426866 0.08804898 -0.33946475 0.07881425
000120 24 7f a9 be 6e 3e 08 be d7 cd e1 3e 8a 39 9f be
       -0.33104813 -0.13305065 0.44102356 -0.31098586
000130 86 9b 00 bd 77 ec da be 77 55 83 bd da 03 1b 3e
       -0.03139832 -0.42758533 -0.064127855 0.15138188
000140 cf ca 3e be 27 f1 19 be 62 62 1c 3e a0 ba c3 3d
       -0.18632053 -0.15033399 0.15271905 0.0955708
000150 30 ea 37 bd 35 35 32 bc b1 12 db bd 10 91 a1 3d
       -0.044901073 -0.010876943 -0.106969245 0.078889966
000160 56 09 40 be b0 3f 31 be 22 b2 b3 3e db 1c 47 3e
       -0.18753561 -0.17309451 0.35096842 0.19444601
000170 a1 10 2c bd b1 8c 54 be 46 27 8d be 3a 43 9c bc
       -0.042008046 -0.20756795 -0.27569026 -0.019075025
000180 f9 4b b2 bd fd d9 22 3e e8 88 7f be fd ee 00 be
       -0.08705897 0.15903468 -0.2495457 -0.12591167
000190 a7 47 92 3e 1d 93 05 3d 78 ba 83 be 4b db 9e be
       0.2857029 0.032611 -0.25728202 -0.31026682
0001a0 6d 2b 10 3e 4c 23 75 3e d6 7f 82 be b6 77 85 bd
       0.14079066 0.23939246 -0.25488156 -0.06516974
0001b0 03 38 1d bc 34 5b 6f bd 2e ca cb 3e e4 d7 1d bd
       -0.009595874 -0.058436587 0.39802688 -0.038535967
0001c0 b2 16 ea 3d 64 ad 0d be c4 89 4e 3e 0f c0 fb 3d
       0.1143011 -0.13835675 0.20169741 0.12292492
0001d0 a8 e9 a7 3d 12 71 03 3d 9f 5d ff 3c 51 eb 2f be
       0.08198863 0.032090254 0.031172572 -0.1717961
0001e0 cb d4 1f 3e 3c 7e bd 3c 2e 61 65 3d 08 c3 39 be
       0.15608518 0.023131482 0.05600088 -0.18140805
0001f0 e8 1b 1d 3d 7c bb ae 3d 9e 34 37 bd 34 37 89 be
       0.03835669 0.085318536 -0.044727914 -0.2679993

fc2.weight f4 [100, 128]
000000 20 72 cf be c1 35 1f bd 30 72 57 bc ec e6 14 be
       -0.40516758 -0.038869623 -0.013149783 -0.14541215
000010 70 50 02 3d df ad eb bd 86 7a dc 3b be 5c 19 be
       0.031814992 -0.11507773 0.006728473 -0.14976785
000020 22 da ab bd f5 ae 3d 3e 2f 12 3e 3d 96 b0 3b 3d
       -0.08391215 0.18523772 0.04640406 0.045822702
000030 3a 46 70 be 90 a2 9e bd 79 f1 16 bf 68 1c cc be
       -0.2346429 -0.0774585 -0.5896221 -0.39865422
000040 7c 31 a0 be 9c 42 58 be 95 73 cd be 42 0e 15 be
       -0.31287754 -0.2111916 -0.40127245 -0.1455622
000050 00 15 1f 3e d1 ee 2b bc c1 8e 88 3d ca 6e 4d bd
       0.15535355 -0.01049395 0.06667853 -0.050154485
000060 e3 be 39 be 41 2c b1 3c 82 9f 3b be dc f6 f5 bd
       -0.18139224 0.021627547 -0.18322566 -0.12009975
000070 04 9f d7 3d 22 7c 99 3e bc f2 92 3d 54 48 2a 3e
       0.10528377 0.29977518 0.07175204 0.16629153
000080 a7 48 f3 be ae de b9 3d f8 d6 b0 bd d2 ac cb bd
       -0.47516367 0.09075676 -0.08634752 -0.09945072
000090 dc 64 68 3e 06 03 d7 3e fc 88 84 bd b8 68 4f 3a
       0.22694725 0.41994494 -0.0647144 0.00079120276
0000a0 63 00 32 be 4c 9e ff bb 7b 4f c3 be c0 3d 3b 3e
       -0.1738296 -0.007800853 -0.38146576 0.18285275
0000b0 ed 7b 39 3e b4 f7 2c 3d 1d 0c f5 bc a8 2e 97 3d
       0.1811368 0.042228416 -0.029913003 0.07381946
0000c0 92 e6 a2 bd 3d b2 d4 bc bf e4 12 3e bc b8 20 3d
       -0.07954134 -0.025963897 0.14345072 0.039238676
0000d0 f9 a7 32 3e 99 5a 91 3d 3a ef 57 3c 47 96 9d 3c
       0.17446889 0.07097358 0.013179595 0.019236697
0000e0 b7 bc f7 3d a0 0c 3f 3d 3a 63 ae be 20 ac 50 bd
       0.120965414 0.0466429 -0.3406008 -0.0509454
0000f0 5f 83 0d 3e f7 3d 8a be 35 a8 53 3d ae 66 11 be
       0.13819645 -0.270004 0.051674087 -0.14199325
000100 df ec 1d 3e ec f5 49 be 52 3f 05 3e e3 2c 03 3d
       0.1542239 -0.19722718 0.13012436 0.03202523
000110 78 1c f6 3d d2 ac 32 3e 48 26 ed 3d 67 07 80 3d
       0.12017149 0.17448738 0.11579567 0.06251412
000120 f7 97 c5 3d 5f 6d b8 3b 39 17 c8 3d cb 9f f4 bc
       0.096481256 0.0056282724 0.09770054 -0.029861351
000130 31 8e 05 3e 16 4e 57 3d cc ef 16 be d2 85 85 bd
       0.13042523 0.052564703 -0.14739913 -0.06519665
000140 c8 71 b6 be 57 51 15 3e 49 bc 50 3a 1a 21 dc 3d
       -0.35633683 0.1458181 0.0007962627 0.10748501
000150 55 10 fc 3d 9a 72 29 be 32 28 3f be 7f 48 03 3d
       0.123078026 -0.16547623 -0.18667677 0.03205156
000160 d1 4b 8f 3e 9d 9b cb be 1e 26 a6 3e f0 7a 51 be
       0.2798753 -0.3976716 0.32450956 -0.20457053
000170 59 e6 c2 3b 93 b9 01 3e ff 90 cf 3d b3 48 a3 bd
       0.0059478697 0.12668447 0.10135078 -0.07972851
000180 13 0d 8d bd 46 3c 09 bd bc bd 22 3e b4 fb 7f 3d
       -0.06887259 -0.033504747 0.1589269 0.062495902
000190 36 a1 ad 3d 5e 7d 57 be 8c 7f 93 3d 93 25 49 3e
       0.08478014 -0.21043918 0.07202062 0.1964324
0001a0 4a 6f a4 be cc 0e 68 3e f4 6a 23 be db 5b b6 3c
       -0.32116157 0.22661895 -0.15958768 0.022260597
0001b0 66 35 09 be a3 77 e7 3d aa c8 a8 3d a8 2e af be
       -0.13399276 0.11302116 0.08241399 -0.34215283
0001c0 97 fb 38 be ee 2e 7e bd 7e f9 0a 3e 7d 76 66 bd
       -0.18064724 -0.062056474 0.13571736 -0.056265343
0001d0 c4 19 5f be 06 6d ba 3d a3 4f 79 3d 44 48 46 be
       -0.21787173 0.09102826 0.060866963 -0.19363505
0001e0 af 58 8f be c0 d1 d5 3d 6f e8 5b 3e 95 75 d2 bd
       -0.27997348 0.10440397 0.21475385 -0.10276333
0001f0 68 6f 41 be 03 f8 e3 bd 22 3b b0 bc 8f cf ee 3d
       -0.18890154 -0.11131289 -0.021512572 0.116606824
000200 99 50 a4 3e 09 04 88 3d 9a fe 92 3e e5 eb 7a be
       0.3209274 0.06641395 0.2870987 -0.24504049
000210 54 92 62 bd 4b 6e 24 3e 10 96 54 3e f4 9c da 3d
       -0.05531533 0.16057698 0.2076037 0.10674468
000220 f2 3f 85 3d d8 d1 22 3c d3 05 8c 3d 59 30 b7 bd
       0.06506337 0.009937726 0.068370484 -0.089447685
000230 f8 6b 06 3e 0c a3 e5 bd dc b4 28 3d a8 83 0c be
       0.13127124 -0.11212739 0.041188106 -0.13722098
000240 d5 2c 16 3e 8a bb e5 3d 69 c6 eb 3d 4c cf 43 3e
       0.1466554 0.11217411 0.11512453 0.19122046
000250 b8 b7 26 3d 44 88 06 3e 54 7e 1c be 79 eb 78 be
       0.04070255 0.13137919 -0.15282565 -0.24308576
000260 b6 2e 49 3c f9 77 1e 3e 4b 7a 94 bd fb 70 b6 3d
       0.012279203 0.15475453 -0.07249888 0.08908268
000270 df 86 31 3e 29 2b bc 3c 41 db 03 be 35 b1 0a 3d
       0.17336605 0.0229698 -0.12876607 0.033860404
000280 30 9e 83 3e bf 9a ef bc df ac 7e 3d 63 6f 5e 3d
       0.25706625 -0.029248593 0.06217658 0.054305445
000290 a2 05 31 3e 03 83 81 be de 5f f4 3d f9 04 05 be
       0.17287305 -0.25295267 0.11932348 -0.12990178
0002a0 e9 65 80 3d ea e3 81 3d f0 9e 57 3e f5 28 c4 bd
       0.06269438 0.06342299 0.21056724 -0.095781244
0002b0 4c ff 8a 3c b5 33 5a 3e d5 d5 49 3d c6 e8 f6 bb
       0.016967438 0.21308787 0.04927619 -0.007535073
0002c0 64 b1 f1 bd da 58 9b 3d 13 8d de bc cf 99 aa 3d
       -0.11801413 0.075853065 -0.027166879 0.08330118
0002d0 de 43 e0 bc d1 5f 9e 3d 50 1b ff 3d 13 8b b0 3d
       -0.027376112 0.07733119 0.12456381 0.08620276
0002e0 a5 b6 84 bd 1d 45 4d bd d3 e1 d5 3e c6 44 e1 3d
       -0.06480149 -0.05011474 0.41773853 0.109994456
0002f0 48 63 83 3d a3 f7 ce 3d ed 25 18 bc 96 08 42 bd
       0.06415421 0.10105827 -0.009286386 -0.04737147
000300 ea 4d 45 bb 15 33 8c 3d d8 63 51 bc be e9 bf 3d
       -0.0030106255 0.068456806 -0.012780152 0.09370755
000310 e8 b2 e6 bd ef 66 cf bd f3 8c 28 be c2 f1 68 3c
       -0.112645924 -0.10127055 -0.16460018 0.014217796
000320 eb 8a 2e 3e d3 f6 e2 bc 1d 1d 4e bf 63 ba 47 3c
       0.1704518 -0.027705586 -0.80513173 0.012190434
000330 75 85 1d ba fb 6f 94 bd ba 2b 1c be 49 94 53 be
       -0.00060089614 -0.07247921 -0.15251055 -0.20662035
000340 71 97 d1 bd 98 36 52 bd a1 c2 9a bd 29 0d 00 3e
       -0.10233963 -0.051321596 -0.07556654 0.1250502
000350 99 a7 ef bd bf f6 55 3e 03 5c a1 bd 15 11 7d 3e
       -0.117018886 0.20894907 -0.07878878 0.24713548
000360 bb 62 20 be ec 57 cf bc 3c 56 08 bd 0a 88 1f 3e
       -0.15662663 -0.02531048 -0.033285365 0.15579239
000370 51 7a 1b 3e ec 5f ea bd 83 fb 98 3d a7 97 45 bd
       0.15183379 -0.11444077 0.07469847 -0.04824033
000380 42 17 3d be 55 1b c0 bc d4 db b6 3c d3 31 31 3c
       -0.18465903 -0.023450533 0.02232162 0.010815102
000390 b5 2d 83 bd 32 ce 38 3e 7f 25 11 3e ef 1a d9 3d
       -0.06405202 0.18047407 0.1417446 0.1060084
0003a0 f1 26 0f be 3f 50 b0 bd bb ba 2c bd e1 f6 d2 3c
       -0.13979699 -0.08609056 -0.042170268 0.025752487
0003b0 ea 2d 07 be 3f 8c cc bc c6 5f 03 bd e5 d0 a6 3e
       -0.13201109 -0.024969218 -0.03207376 0.3258125
0003c0 61 d6 04 3d 20 78 88 be 1a cf 2f be 7e 93 a6 3e
       0.03243101 -0.26654148 -0.17168847 0.32534403
0003d0 d0 a1 fd 3d 87 63 ee 3a 8a 29 a9 3d f3 d7 ce bd
       0.12384379 0.001818762 0.08259876 -0.10099783
0003e0 5c f8 51 be 11 1c cc 3c c4 e3 25 3d 25 ff 9f 3e
       -0.20504898 0.024915727 0.040500417 0.31249347
0003f0 4c c2 37 3e 16 56 fa 3c f0 0c 0a 3e 03 b8 84 3d
       0.17945212 0.030558627 0.13481498 0.0648041

fc2.bias f4 [100]
000000 c3 a5 7a 3c 44 2a 0e 3e 04 df 84 be be da a7 3d
       0.01529831 0.1388331 -0.25951397 0.08196019
000010 12 8c cf 3c ca c5 91 3c e8 6c 4e bd 79 25 a0 be
       0.025335345 0.017794508 -0.05039683 -0.3127859
000020 fa 63 8f 3b b1 6e d8 bd f2 ca d0 ba 02 a2 82 be
       0.004375932 -0.10567988 -0.0015929623 -0.25514227
000030 04 00 b4 be aa 48 9e 3d c1 68 ed 3d a3 94 2a be
       -0.35156262 0.07728703 0.11592246 -0.16658263
000040 12 ea d2 bc cc 3b aa 3d 3a 48 2f be b4 5d 13 bd
       -0.025746379 0.083121866 -0.17117396 -0.035978034
000050 40 03 1c bd e2 03 34 3d 21 1c 80 bd 44 0e 27 3d
       -0.038089037 0.043949015 -0.06255365 0.04078509
000060 d8 1c 8c 3c 73 df 4b be 4c ed 3f 3d c7 3b 3d be
       0.017103598 -0.19909458 0.046857163 -0.18479834
000070 b1 11 1b 3d 85 1a dd 3d b8 57 33 3d bc 3b a7 3d
       0.03785867 0.10796074 0.043784827 0.0816569
000080 22 6e 00 3e 0a af 18 3d 2e 66 1e be c2 fa 4a bc
       0.12542012 0.037276305 -0.15468666 -0.012388887
000090 26 56 22 bd 0a ca 3a 3d 54 6d 28 be d2 b8 42 bd
       -0.03963294 0.045602836 -0.16447955 -0.04753954
0000a0 fd af 59 3d b9 ac 1c bc 62 08 65 bd d8 a5 02 be
       0.05314635 -0.009562665 -0.055916198 -0.12758577
0000b0 0d f8 60 be 05 a7 c2 3d a4 3e 5e be 47 56 d9 3b
       -0.21969624 0.09504513 -0.21703583 0.0066325995
0000c0 df 54 ac bd f6 dc fd bd 7b 8d a0 3d 3d b2 04 be
       -0.084146254 -0.123956606 0.07839485 -0.12958618
0000d0 64 b9 80 3d de e2 90 be 39 51 12 3e df 1d 95 3d
       0.062853605 -0.28298086 0.14288796 0.07281088
0000e0 d8 1b c2 bc df 50 1c 3c 2d 32 1d be 07 8b 88 3d
       -0.023694918 0.009540766 -0.15351172 0.06667142
0000f0 5b 83 0c bd f8 27 49 3c d6 9f 21 3e 2c 83 ca bc
       -0.034304958 0.012277596 0.15783629 -0.02472075
000100 b1 05 7d be ce 04 ec 3d 20 12 eb 3c d7 a8 67 3a
       -0.24709202 0.11524354 0.028695166 0.000883711
000110 6d 11 b0 3d 69 87 e4 3c e6 f3 f0 bc 54 bc 60 3a
       0.08597074 0.0278966 -0.029413175 0.0008572985
000120 45 7c 94 bd 5c 1d 87 3d fa 44 02 3e d9 a6 d0 3d
       -0.07250265 0.06597397 0.12721625 0.10188074
000130 39 1e ea 3c 2e 79 e6 3c a1 1b 5d be 58 9f 32 3d
       0.028578864 0.028133955 -0.21592571 0.043608993
000140 4a 09 71 be 27 e0 16 3e 47 d1 28 3d 36 ef 89 bd
       -0.235387 0.14733945 0.041215207 -0.06735079
000150 a1 62 83 3c 5a c3 cf bb f3 b5 e9 bd 25 2a fc 3c
       0.01603824 -0.0063404264 -0.11411657 0.030781815
000160 1c 21 bd bd 69 6a 09 be a9 c3 1e bc 98 01 07 3d
       -0.09234831 -0.13419499 -0.009690204 0.032960504
000170 58 8f 1f be 7e 24 f6 bc 5c 9f 5b 3d a5 57 82 3b
       -0.15582025 -0.030046698 0.053618774 0.003977733
000180 1b 6f 85 3d 8d 38 df 3d 6f 68 ee bc a8 81 a0 3d
       0.06515332 0.10899458 -0.029102532 0.0783723

fc3.weight f4 [2, 100]
000000 4b 2c 4d 3e cd a1 f0 bc be 14 9b 3e 93 4e cd be
       0.20036428 -0.029374028 0.30289263 -0.4009901
000010 b2 2b 87 3e 98 c1 59 bc 37 56 0d 3c cc 33 40 3f
       0.26400524 -0.013290785 0.008626512 0.75079036
000020 df 13 4f bd 62 5e ed 3e 65 2a 22 3d a8 09 b7 3e
       -0.05055606 0.4636107 0.03959121 0.35749555
000030 3d 8e 8c 3f a4 b3 60 bd 3e 4f 2e bc e1 8f b9 3e
       1.0980908 -0.05485882 -0.01063901 0.36242583
000040 44 c5 98 3c e0 99 3e be 7b fd 03 3f 35 20 2b bf
       0.018648751 -0.18613386 0.51558656 -0.6684602
000050 4a 50 c6 bc e5 08 39 3e 43 72 2e be 70 0e 55 be
       -0.024208207 0.18069799 -0.17035775 -0.20806289
000060 dc 71 25 3e 1d 62 0e 3e 7d 88 a9 be 22 9d 62 be
       0.16156715 0.13904615 -0.33111945 -0.22130254
000070 a5 ba 0c 3f 3a 32 e7 bd e8 e2 86 3e b7 9d 0f be
       0.54972297 -0.11288877 0.2634499 -0.14025007
000080 49 6d db be eb c6 65 be 26 31 20 3f 20 2a c0 bd
       -0.42856815 -0.22439162 0.62574995 -0.09383035
000090 db 8b 94 3d 32 5a 29 bd c3 40 5a 3e 80 9b bd 3e
       0.07253238 -0.041345783 0.21313767 0.370327
0000a0 e5 14 12 bd a7 98 39 bd a8 d7 86 3f 16 79 c9 3e
       -0.035664458 -0.045311596 1.0534563 0.39350194
0000b0 f4 0f 1f 3d 19 2b 27 3e ae 83 d4 3e 2a f8 58 be
       0.038833573 0.16325034 0.41506714 -0.21188417
0000c0 de 66 c1 3e 84 45 bf 3e 5c d9 c0 3d 51 a8 bc 3d
       0.37773794 0.37357724 0.09416458 0.09211791
0000d0 d6 cf 40 3e 77 ef 5a 3e dc ee b8 3d d7 1f c6 3e
       0.18829283 0.21380411 0.09029934 0.38696167
0000e0 a4 e4 22 ba bc 27 66 bd 93 d5 14 3f e7 ea ab bd
       -0.00062138797 -0.056190237 0.5813839 -0.083944134
0000f0 23 1a 92 3d e6 f6 4f 3e 6f 5a da bd a3 f6 1e 3f
       0.071338914 0.20309028 -0.1066178 0.6209509
000100 b3 22 b0 3e b9 11 ef 3c 63 d0 2e 3d 93 ef e1 3e
       0.34401473 0.029183256 0.0426792 0.44128093
000110 3f 22 c7 bc 44 e3 e3 3c e2 ec da 3d 91 21 91 be
       -0.024308322 0.02781833 0.10689713 -0.28345922
000120 11 d6 ad bc 13 4a 07 3f 5e 58 bd 3d 40 cc 2f 3e
       -0.021220239 0.52847403 0.0924537 0.17167759
000130 71 9b 9e bd 77 d8 39 be c5 20 09 3f 3e 77 28 bd
       -0.07744492 -0.18148981 0.5356563 -0.041129343
000140 79 82 33 bd 5f ec fc 3c 72 84 90 3d b5 b3 e2 3c
       -0.0438256 0.03087443 0.07056512 0.027673582
000150 74 e3 65 3b c1 43 d3 3b e4 2b 93 3d b9 c1 02 3e
       0.00350782 0.006447286 0.07186106 0.12769212
000160 2e 11 e2 3e 44 58 2d 3e 7c 95 f0 bd 2f 52 8c be
       0.44153732 0.16928202 -0.11747262 -0.2740645
000170 20 83 cf be 0e 09 f5 3d b7 7f 9d bd d7 18 c7 bc
       -0.40529728 0.11964618 -0.07690375 -0.024303837
000180 8e 0a 1e be cd 97 8d bd e3 cb 45 bf c3 09 52 3d
       -0.15433714 -0.06913719 -0.7726423 0.05127884
000190 78 76 82 3e 5b c8 98 bd b9 d8 8c 3e 3d b4 c0 be
       0.2548101 -0.0746009 0.27509096 -0.3763751
0001a0 e1 55 ac 3d 26 93 55 be fd bc 22 3e f0 7f f1 3e
       0.084148176 -0.20856914 0.15892406 0.4716792
0001b0 34 25 0d bf ad 64 2d be 0e 7c c1 be c7 27 1a 3e
       -0.5513489 -0.16932936 -0.3778996 0.15054236
0001c0 94 ab b1 3e fc b9 83 be 25 5a 40 3c 82 37 a9 3e
       0.34701216 -0.25727832 0.011740242 0.33050162
0001d0 c7 7a d2 be 52 f0 5b bd db d4 22 3e 36 bc 41 3e
       -0.41109297 -0.053695984 0.1590151 0.18919453
0001e0 6e 83 87 3c 5b 69 ff be 78 6a 5b be 18 84 11 be
       0.016542163 -0.49885067 -0.21427333 -0.14210546
0001f0 fe 8a 28 3f 12 cc 3a 3f 20 2b b9 bc d0 1f 45 3e
       0.65837085 0.72967637 -0.022603571 0.19250417
000200 7c ed dc 3e fa 9a 2a 3d d9 3c e1 bd 3b 90 85 3e
       0.43149936 0.041651703 -0.10997934 0.26086602
000210 ac 8e a6 3e d2 f9 e3 be 17 b2 fb bd b7 d6 49 3e
       0.32530725 -0.44526535 -0.12289827 0.19710813
000220 29 b0 05 bd f0 2a ae 3e 54 4b 2d be 52 34 b2 3e
       -0.032638703 0.34017134 -0.16923267 0.34805542
000230 72 56 cb bd 83 a1 73 3e 82 1f 31 3e a0 42 a1 be
       -0.099285975 0.2379208 0.17297176 -0.31496143
000240 88 9c dc 3e 4e bd 9d bc 23 f5 9d bd 12 4b 7d bc
       0.43088174 -0.019255307 -0.07712772 -0.015459793
000250 23 19 eb be 39 10 66 3e db dc 3b 3e 84 66 11 bf
       -0.45917615 0.22467126 0.18345968 -0.5679705
000260 50 82 0c 3e 1b f9 5b 3f 8e ba 01 3d 0b 87 21 3f
       0.13721585 0.8592698 0.031672053 0.63096684
000270 ee 9e a6 3e 02 62 ab bd aa ef 88 3d ae fe 97 3d
       0.3254313 -0.08368303 0.06686337 0.07421623
000280 44 65 99 bd e5 7a e5 be 19 d4 bd bd 83 b6 de 3e
       -0.07490018 -0.44820324 -0.0926897 0.4349862
000290 1d 8e b1 3e 32 af 87 be 71 26 53 be c7 c0 05 3f
       0.34678736 -0.2650085 -0.20620133 0.5224728
0002a0 9e ab 9d bc 22 ed 63 bc c9 f7 dd 3e 92 3a 5c bd
       -0.019246873 -0.013911517 0.43353108 -0.053766795
0002b0 59 d4 8d 3d 6a 99 da bd f7 ad fb bc ab a4 ef be
       0.06925268 -0.10673793 -0.030722601 -0.4680532
0002c0 f6 ee ce be d6 ed 8a 3d 55 ce be be e6 23 73 3d
       -0.40416688 0.06783645 -0.37266794 0.059360407
0002d0 c5 50 05 3f 97 eb 5e be 8f 29 c2 ba bc bd 8b 3e
       0.5207637 -0.21769558 -0.0014813411 0.27293193
0002e0 d9 e5 2a bd 6a 07 00 be 1e 89 74 3e 01 8e 7e be
       -0.041723106 -0.12502828 0.23880431 -0.24858858
0002f0 ff 12 d0 3e 9d 39 d3 3d 28 0b 8b 3e 9a 5f c6 bd
       0.40639493 0.10313723 0.2715695 -0.09686203
000300 f8 20 c2 3d fa 5f 80 be ad f0 94 3e ac 98 91 bd
       0.094789445 -0.25073224 0.2908987 -0.07109198
000310 42 04 7f 3e 1a 15 50 3d ac 78 aa be 53 27 1d be
       0.24903968 0.050801374 -0.3329519 -0.15347032

fc3.bias f4 [2]
000000 33 4a 11 be 32 32 df bb
       -0.14188461 -0.0068114037
