checkpoint_critic.pth (torch_old, 66649 bytes, 5 tensors)

fcs1.weight f4 [128, 24]
0	0xbdd881c6	-0.10571627
1	0xbc5fca19	-0.013659024
2	0xbd1acd78	-0.037793607
3	0xbd965c61	-0.07341839
4	0x3e348617	0.17629276
5	0xbc671cc6	-0.014105981
6	0x3d0f30c1	0.034958605
7	0x3d970880	0.07374668
8	0x3da52c2c	0.08065066
9	0xbcb99a0c	-0.022656463
10	0xbcad658e	-0.02116659
11	0x3c165a84	0.009176854
12	0x3ded3328	0.11582023
13	0x3d600188	0.05468896
14	0xbb9ed408	-0.0048470534
15	0x3c1badab	0.009501855
16	0xbc10103a	-0.008792931
17	0x3d2f7599	0.04283676
18	0x3cf23abe	0.029569026
19	0x3c82678e	0.01591852
20	0xbe6e54f8	-0.232746
21	0x3cffbc7e	0.03121781
22	0xb9a9bd2c	-0.00032375136
23	0x3d610409	0.05493549
24	0xbda78d95	-0.081813015
25	0xbe1df3dd	-0.15425058
26	0x3d27865e	0.040899627
27	0xbcc365c2	-0.023852233
28	0x3da5dd93	0.080989026
29	0xbe662c44	-0.22477823
30	0xbd1ab8d0	-0.037773907
31	0xbce337ca	-0.027736563
32	0xbd214ef5	-0.03938194
33	0xbe1d108d	-0.15338345
34	0x3cb4fea0	0.02209407
35	0x3c9ee721	0.01939732
36	0x3ddb21f5	0.10699836
37	0xbde85b45	-0.11345533
38	0xbd56fb2e	-0.052485637
39	0x3bef2e71	0.0072992374
40	0xbce4e88d	-0.02794292
41	0xbe180b5a	-0.1484808
42	0xbd037a39	-0.032098982
43	0xbcf2cdc4	-0.029639132
44	0x3ac8d2f7	0.0015321661
45	0xbe9611c5	-0.29310432
46	0x3bd719db	0.0065643615
47	0xbbbfaa69	-0.005849172
48	0x39d58fa1	0.00040733538
49	0xbd2bbfc5	-0.041930933
50	0xbd15e62a	-0.036596455
51	0xbc8d331f	-0.01723629
52	0xbe2ff605	-0.17183693
53	0x3b9440e0	0.0045243353
54	0x3cf128e2	0.02943844
55	0xbc66dc35	-0.014090587
56	0xb99b573d	-0.000296289
57	0x3d36cf3d	0.04463123
58	0xbd17bbbb	-0.037044268
59	0x3df2e75c	0.118605345
60	0x3cbe847f	0.023256538
61	0xbd5ff797	-0.05467948
62	0x3cedaf3d	0.029014224
63	0x3dae9586	0.08524613
64	0xbd5f7fcb	-0.054565232
65	0xbd3f572c	-0.046713993
66	0xbd4ab5e8	-0.049489886
67	0x3da9c310	0.08289158
68	0x3e4065da	0.18788853
69	0xbe736c88	-0.2377187
70	0x3c534733	0.012895393
71	0x3d60fb6c	0.054927275
72	0xbd636d87	-0.055524375
73	0xbd9bbe86	-0.07604699
74	0xbd895adc	-0.06706783
75	0x3bb057d6	0.0053815646
76	0xbd98794a	-0.07445009
77	0x3d9d7896	0.076890156
78	0x3d707417	0.058704462
79	0x3a8178b8	0.0009877896
80	0x3c98b619	0.018641518
81	0xbc516745	-0.012780969
82	0xbd74cc21	-0.059764985
83	0xbc9a698c	-0.018849157
84	0xbd88b67c	-0.06675431
85	0xbe954b6e	-0.2915911
86	0x3d5142c9	0.051089082
87	0xbd24f780	-0.040275097
88	0xbdb8a8c0	-0.090165615
89	0xbd40ce71	-0.047071878
90	0x3cebcc0e	0.028783824
91	0x3d955bf4	0.07292929
92	0x3e86a673	0.26298866
93	0xbe0193d9	-0.12654056
94	0xbcc4ac63	-0.024007982
95	0xbb5e19d2	-0.0033889902
96	0x3d87be62	0.066281095
97	0x3c86875e	0.01642197
98	0x3c2b7afb	0.010466333
99	0x3d9f3854	0.077744156
100	0xbb9f39ba	-0.0048591765
101	0x3de9be21	0.11413217
102	0xbccdea02	-0.025135998
103	0x3d04be4d	0.032408047
104	0x3de8d75c	0.113692015
105	0x3dd84709	0.10560424
106	0x3d0124d7	0.031529274
107	0xbb9bcbba	-0.0047545107
108	0x3cbc10ad	0.02295717
109	0x3e00cdaa	0.12578455
110	0xbc555177	-0.013019911
111	0xbd3de775	-0.046363313
112	0x3e143fe2	0.14477494
113	0x3d3e2c2c	0.046428844
114	0xbd70daff	-0.0588026
115	0x3df1b3b9	0.118018575
116	0x3e8a9123	0.27063856
117	0x3e074c77	0.13212763
118	0x3cfcfbef	0.03088185
119	0x3dc2578e	0.09489356
120	0xbdd4947a	-0.10379882
121	0x3e80b99b	0.25141606
122	0x3cb65430	0.02225694
123	0x3d8f9faa	0.070128754
124	0xbdb95d81	-0.090510376
125	0xbe6e7ad5	-0.23289044
126	0xbcb8a009	-0.022537248
127	0x3c764647	0.015031404
128	0xbd115b37	-0.03548738
129	0x3e89203a	0.267824
130	0xbd0c3aac	-0.03423564
131	0x3d1999da	0.03750024
132	0x3d1f788d	0.038933326
133	0xbf3f1c3c	-0.7465246
134	0x3cf51b06	0.029920112
135	0xbcd1889d	-0.025577838
136	0xbdba447c	-0.090950936
137	0x3ea88547	0.32914183
138	0xbcb161da	-0.021653105
139	0x3d38c0d7	0.04510578
140	0x3e240bac	0.16020077
141	0xbdf4d4e9	-0.11954672
142	0x3cc932ea	0.02456041
143	0x3d77863d	0.060430754
144	0x3d619c2e	0.055080585
145	0xbddc233e	-0.107489094
146	0xbc9d64bd	-0.019213075
147	0xbc92d980	-0.017925978
148	0x3c1ec852	0.009691315
149	0xbdb9fb87	-0.09081178
150	0xbd02f609	-0.03197292
151	0xbd8d7f45	-0.0690904
152	0x3e30087e	0.1719074
153	0xbda0f5ba	-0.078593686
154	0x3c8bd6e6	0.017070245
155	0xbe0e9e16	-0.13927492
156	0x3d53521f	0.05159199
157	0xbcecc67b	-0.028903237
158	0x3bb46a51	0.005505838
159	0xbe016e1b	-0.12639658
160	0x3d58b616	0.052908026
161	0x3d004ae5	0.031321425
162	0x3d8655a5	0.06559304
163	0x3e0c5ec1	0.13708021
164	0xbe2442c6	-0.16041097
165	0xbe286a52	-0.16446808
166	0xbdd93e77	-0.10607617
167	0x3da33fc7	0.07971149
168	0x3d1af00d	0.037826587
169	0x3c935bd5	0.017988125
170	0x3bd090fb	0.0063649393
171	0x3c9d7f6d	0.0192258
172	0xbba62866	-0.005070734
173	0xbf04e008	-0.51904345
174	0xbbde2bd0	-0.006780125
175	0xbc137805	-0.009000783
176	0x3d38b66e	0.045095854
177	0xbc934c97	-0.017980857
178	0x3acf7df4	0.0015830384
179	0xbd89b36d	-0.06723676
180	0xbe25076b	-0.16116111
181	0xbd44113d	-0.047868002
182	0x3a09912b	0.0005247767
183	0x3d521f3b	0.051299315
184	0xbd783f9c	-0.060607538
185	0xbcc75f1e	-0.024337348
186	0xbd06e00a	-0.032928504
187	0xbd439ef1	-0.047759
188	0x3d8bd799	0.06828231
189	0x3f1b614f	0.60695356
190	0x3d1921fe	0.037385933
191	0x3d673a3d	0.056452025
192	0x3c8c033f	0.017091392
193	0x3d692c72	0.056927152
194	0x3d07730b	0.033068698
195	0xbcab7ba7	-0.020932985
196	0xbdec8a4a	-0.11549814
197	0x3dfe8b8d	0.12428961
198	0xbd3e39bc	-0.04644178
199	0x3d15418b	0.03643946
200	0x3ce3f752	0.027827892
201	0x3df60623	0.12012889
202	0xbc48b670	-0.012250528
203	0x3cb2b253	0.021813547
204	0xbd8b2cd9	-0.067956634
205	0x3d838205	0.06421284
206	0x3c3c9f9e	0.011512665
207	0x3aa397df	0.0012481174
208	0x3d8d3944	0.06895688
209	0x3e24f07e	0.16107365
210	0xbd1d6230	-0.038423717
211	0xbe1d1202	-0.153389
212	0x3e8b4a2c	0.27205026
213	0x3e85ceb0	0.26134253
214	0x3d49f0db	0.049301963
215	0xbe5efcca	-0.21776119
216	0x3e2ab7d9	0.16671695
217	0x3e8acbb1	0.2710853
218	0xbcc695d3	-0.024241364
219	0x3e4484d9	0.19191302
220	0xbe541a2b	-0.20713107
221	0xbe86b6c1	-0.26311305
222	0x3c139313	0.009007233
223	0x3daeba78	0.0853166
224	0x3d64cb37	0.055857863
225	0x3e9cbc14	0.30612242
226	0x3caeb619	0.021327065
227	0x3d79e0c6	0.061005376
228	0xbe030e77	-0.12798487
229	0xbf0a3dcc	-0.54000545
230	0x3c032bd6	0.008006057
231	0x3e2838a4	0.16427857
232	0xbcf47123	-0.029839104
233	0x3e70ca61	0.23514701
234	0x3d28128f	0.041033324
235	0xbe6be826	-0.23037776
236	0x3dc1573e	0.09440468
237	0x3c61a2f1	0.013771758
238	0xbc7d3b23	-0.015455994
239	0xbe1fe89f	-0.15616082
240	0x3d582bd6	0.05277618
241	0x39189f96	0.000145553
242	0xbca4b869	-0.020107465
243	0x3c17dede	0.009269444
244	0xbdaa1a60	-0.08305812
245	0xbe178035	-0.14795001
246	0x3cd74b9a	0.026281167
247	0xbc1624b9	-0.009164029
248	0x3d9bc421	0.07605768
249	0xbdf1b6f6	-0.11802475
250	0x3d2a17bf	0.041526552
251	0xbd2e0dcd	-0.04249363
252	0xbd97ae8a	-0.074063376
253	0x3da15d2a	0.07879098
254	0xbcd7f965	-0.026364038
255	0x3da34325	0.07971791

fcs1.bias f4 [128]
0	0xbe6bc7a3	-0.23025374
1	0xbe6d885b	-0.23196547
2	0x3d858b4c	0.065207094
3	0x3df2921a	0.11844273
4	0x3e3573ab	0.17719905
5	0xbd8bb01f	-0.06820702
6	0xbe345eae	-0.17614242
7	0xbd3a94f5	-0.045552213
8	0xbc8a0954	-0.016850151
9	0x3e5f943c	0.2183389
10	0xbe3ab6a9	-0.18233742
11	0xbe484d10	-0.19560647
12	0xbdbf79a9	-0.09349377
13	0x3e0d63da	0.13807622
14	0x3d30698d	0.04306941
15	0xbdf0be0f	-0.11755001
16	0xbec65a73	-0.38740882
17	0xbdceabd2	-0.10091366
18	0xbc8100df	-0.015747486
19	0x3e1734b1	0.14766194
20	0x3f0c8088	0.54883623
21	0x3c349daa	0.011023918
22	0x3dfb6806	0.122757
23	0x3e2b62ad	0.1673686
24	0xbe79c49c	-0.24391407
25	0xbe4c5d03	-0.19957356
26	0x3dc29fd7	0.09503143
27	0xbd76205d	-0.060089458
28	0xbdac6b5f	-0.08418917
29	0xbdf09994	-0.11748043
30	0xbea7258d	-0.32645836
31	0x3e8fb245	0.28065696
32	0x3bd73d8f	0.0065686177
33	0x3ec1fea6	0.37889594
34	0x3dfbdc42	0.1229787
35	0x3e1ede7b	0.15514557
36	0x3ea9f087	0.3319132
37	0xbeb8b4ac	-0.36075342
38	0x3e232b16	0.15934405
39	0xbe7b19d8	-0.24521577
40	0xbd8b6c15	-0.068077244
41	0xbda293e2	-0.07938363
42	0xbe2c7645	-0.16841991
43	0x3cbcb3a1	0.023034872
44	0xbe8d14bd	-0.27554885
45	0xbec88e78	-0.39171195
46	0x3bcf08f7	0.0063182074
47	0xbe169a8d	-0.14707394
48	0x3dce6799	0.100783534
49	0x3d5f1398	0.054462045
50	0x3e49c90c	0.197056
51	0xbe7845ca	-0.24245372
52	0xbe139e89	-0.14415945
53	0xbcb7b4e9	-0.022425132
54	0xbe29a908	-0.16568387
55	0xbe29b272	-0.16571978
56	0x3f048d5d	0.51778203
57	0xbe791396	-0.24323878
58	0xbdaf5e18	-0.08562869
59	0x3bc4d540	0.0060068667
60	0x3e8d59c8	0.2760756
61	0x3d863bf3	0.06554403
62	0xbee526e2	-0.44756228
63	0xbeb5aafe	-0.3548202
64	0x3e74d33b	0.23908703
65	0x3e264fb7	0.16241346
66	0xbe85122d	-0.2599043
67	0x3e854d60	0.26035595
68	0x3d0084fb	0.03137682
69	0x3e09bdcb	0.13451307
70	0xbe34f612	-0.17671993
71	0xbe403011	-0.18768336
72	0xbe99ac93	-0.30014476
73	0xbea6925f	-0.32533547
74	0x3dd4b4b5	0.1038603
75	0xbdfdda44	-0.123951465
76	0xbe5142f6	-0.204357
77	0xbe6ed5fd	-0.23323818
78	0x3cdd71b1	0.027031751
79	0x3eb76c1d	0.3582467
80	0x3db7044e	0.08936368
81	0x3ea634af	0.3246207
82	0x3eea7d96	0.4579894
83	0x3db46eb9	0.08810181
84	0x3ee67e06	0.45018023
85	0xbc42c6a7	-0.011888183
86	0xbe8e433d	-0.27785674
87	0x3d9dbe01	0.07702256
88	0xbe109cb8	-0.14122283
89	0x3dcdbc4a	0.10045679
90	0x3e6e8f0e	0.23296759
91	0x3e558342	0.20850852
92	0x3e8f6119	0.28003767
93	0xbdec7616	-0.115459606
94	0xbdd66320	-0.10468125
95	0x3e5b54d3	0.21419077
96	0xbdab1987	-0.08354478
97	0xbda3543a	-0.07975049
98	0xbe3a99da	-0.18222752
99	0x3e6de450	0.23231626
100	0x3effe0d3	0.49976215
101	0x3e30693a	0.17227641
102	0x3d0ec789	0.03485826
103	0xbe61b978	-0.22043407
104	0xbde23107	-0.110445075
105	0x3e1bfbf1	0.15232827
106	0xbe5cc6e0	-0.2156024
107	0xbe4b8ffa	-0.19879141
108	0xbe551cf9	-0.20811833
109	0xbe631b81	-0.2217846
110	0x3ddeb982	0.108752266
111	0xbdfc1d2c	-0.123102516
112	0xbe20a7b1	-0.15688969
113	0xbe7ab807	-0.24484263
114	0xbd3ba0f4	-0.045807794
115	0x3ca47d1a	0.020079184
116	0xbe788def	-0.24272893
117	0xbe6de114	-0.23230392
118	0x3ded2de8	0.115810215
119	0xbdf8a323	-0.12140491
120	0x3d8d7f56	0.06909053
121	0xbda9a322	-0.08283068
122	0xbea77bd3	-0.32711658
123	0xbe0523e2	-0.1300197
124	0xbe807cbd	-0.25095168
125	0x3e683fdb	0.22680609
126	0xbcac93d2	-0.02106658
127	0xbde65369	-0.11246378

fc2.weight f4 [100, 130]
0	0x3d8d14ce	0.06888734
1	0xbe4e1195	-0.20123895
2	0xbe60ccd4	-0.21953136
3	0x3c2a59ee	0.0103974175
4	0xbe9c76dd	-0.30559435
5	0xbe95fc40	-0.29294014
6	0x3c5b5d93	0.013389009
7	0xbdb3c8da	-0.08778544
8	0xbe4d08a3	-0.20022826
9	0x3e027dc0	0.12743282
10	0x3cea4d5a	0.028601337
11	0xbd9fbf49	-0.078001566
12	0x3c050fa6	0.008121407
13	0xbe4804c5	-0.1953307
14	0x3c7fed91	0.015620605
15	0xbd1310b7	-0.035904612
16	0xbee78e6d	-0.4522585
17	0xbe759444	-0.2398234
18	0x3c97baaf	0.018521635
19	0xbdd813a7	-0.105506234
20	0xbe456087	-0.19275104
21	0xbd29ea04	-0.04148294
22	0xbe6e6d66	-0.2328392
23	0x3d153b22	0.036433347
24	0xbe12e0ee	-0.14343616
25	0xbecd2dcc	-0.40074003
26	0xbf0243f7	-0.50884956
27	0x3cccd6b1	0.025004717
28	0x3d953448	0.072853625
29	0xbd2870c5	-0.04112317
30	0x3da1afd3	0.07894864
31	0x3cbeb1f9	0.023278223
32	0xbd9d483c	-0.07679793
33	0xbb2c5366	-0.0026294827
34	0x3d90c44c	0.07068691
35	0x3e0110c3	0.1260405
36	0x3e1d0ff3	0.15338115
37	0xbd80167e	-0.0625429
38	0x3c0c369a	0.00855794
39	0x3df8d868	0.12150651
40	0xbdc64d7f	-0.0968275
41	0x3b9afa1c	0.0047295224
42	0xbdbcf5ea	-0.09226592
43	0x3c11ea74	0.008905996
44	0xbe3931f4	-0.18085462
45	0xbc2f95be	-0.010716854
46	0x3d86d6f0	0.06583965
47	0x3c1e79f0	0.009672627
48	0xbdffdaa6	-0.12492876
49	0x3dc35157	0.09536999
50	0xbd0e4856	-0.034736954
51	0xbe7359ba	-0.23764697
52	0x3d5daa50	0.0541175
53	0xbc115023	-0.008869204
54	0xbe0f6614	-0.14003783
55	0xbbcc42c2	-0.006233544
56	0xbe1865c2	-0.14882568
57	0x3cd546de	0.026034769
58	0x3d9949ed	0.07484803
59	0xbe236405	-0.15956123
60	0x3d13670a	0.035986938
61	0xbcbd6600	-0.023119926
62	0xbe843db1	-0.25828317
63	0x3dd2481e	0.102676615
64	0xbe1591fc	-0.1460647
65	0xbdc0beb2	-0.09411372
66	0xbcfb80c6	-0.030701052
67	0xbc32f232	-0.010922002
68	0xbfa84652	-1.314646
69	0xbc6d420b	-0.014481078
70	0x3dbd9dd6	0.092586204
71	0x3c83fa22	0.016110484
72	0xbeae7c6f	-0.3407931
73	0x3d33cd5f	0.04389703
74	0xbcf38e1f	-0.029730855
75	0xbe9008a9	-0.28131607
76	0xbe959f03	-0.2922288
77	0xbdd26ae8	-0.10274297
78	0x3d961861	0.07328869
79	0x3cdd21eb	0.026993712
80	0xbdff72c7	-0.12473064
81	0xbe1e9702	-0.15487292
82	0x3cf4c2d2	0.029878054
83	0xbdce7e24	-0.10082653
84	0x3d0c83ea	0.03430549
85	0xbd16a3a3	-0.03677715
86	0x3cf794c0	0.030222297
87	0x3dad6684	0.08466819
88	0xbd6251df	-0.05525386
89	0xbe6efc65	-0.23338468
90	0x3e3c75d1	0.18404318
91	0x3c522dcd	0.012828303
92	0xbe25b0c9	-0.1618072
93	0xbd166e26	-0.03672614
94	0xbeaaf59e	-0.33390516
95	0x3da0289e	0.07820247
96	0x3d54a496	0.051914774
97	0xbdc22ebc	-0.0948157
98	0xbe466a94	-0.19376594
99	0xbd045d19	-0.032315347
100	0xbdf13289	-0.11777217
101	0x3e1fdef1	0.15612389
102	0xbe143de2	-0.14476731
103	0xbe72c0e5	-0.23706396
104	0x3ce67a82	0.028134588
105	0x3e43a992	0.19107655
106	0xbd9cf902	-0.07664682
107	0x3d2bc68d	0.0419374
108	0xbe81502e	-0.25256485
109	0xbdd66fcd	-0.10470543
110	0xbbaaede4	-0.005216347
111	0xbde017b3	-0.1094202
112	0xbe5aff22	-0.21386388
113	0xbce5ab0a	-0.02803566
114	0xbda01977	-0.07817357
115	0xbe58470e	-0.21120855
116	0x3dd2f4ef	0.103006236
117	0xbe3c44e2	-0.18385652
118	0xbe2b2e27	-0.16716824
119	0xbd248389	-0.040164504
120	0x3e11ce97	0.14238964
121	0x3dba3d5b	0.09093734
122	0x3ceaf36b	0.028680524
123	0x3d87a860	0.06623912
124	0x3d48d70a	0.049033202
125	0x3e8830ff	0.2659988
126	0x3d9d4071	0.07678307
127	0x3c0329b2	0.008005546
128	0x3eb88c21	0.3604441
129	0xbdb0e176	-0.08636753
130	0x3cf63f6f	0.030059544
131	0x3e397741	0.18111898
132	0xbd2fafe4	-0.04289235
133	0x3d1db307	0.038500812
134	0xbc4a5ffc	-0.012351986
135	0xbd836f97	-0.064177684
136	0xbd80e6d8	-0.0629403
137	0x3d7b0571	0.061284486
138	0x3d233a0f	0.03985029
139	0xbbbf2895	-0.005833695
140	0xbdfec85a	-0.12440558
141	0xbcb71ab9	-0.02235161
142	0x3cf52a32	0.029927347
143	0x3d4fe949	0.050759587
144	0x3de489f4	0.11159125
145	0x3db8147a	0.089882806
146	0xbd9c5f3d	-0.07635353
147	0x3dba23f1	0.090888865
148	0x3d2496d8	0.04018292
149	0xbdab44c5	-0.08362726
150	0xbdc0ab5a	-0.09407683
151	0xbd3aa026	-0.045562886
152	0x3e06a8dd	0.13150354
153	0x3c88c97c	0.016697638
154	0xbdd430c0	-0.10360861
155	0x3d2d67a5	0.04233517
156	0xbea4bbba	-0.32174474
157	0xbd4e378e	-0.05034595
158	0x3d14da46	0.036340974
159	0x3caf5bac	0.021406017
160	0xbdce2cc2	-0.100671306
161	0x3cd12fe9	0.02553554
162	0x3dd2cb1c	0.10292646
163	0x3ab171b2	0.0013537912
164	0xbc3c545b	-0.011494721
165	0xbb5ee274	-0.0034009488
166	0x3cb9a9ca	0.02266397
167	0xbaf9e996	-0.0019066806
168	0x3dc24151	0.09485114
169	0x3d8f0f12	0.06985296
170	0x3c569432	0.013096856
171	0xbcab773c	-0.020930879
172	0xbc1211bb	-0.00891536
173	0xbc380a07	-0.011232859
174	0xbdd4530c	-0.103674024
175	0x3e313d0a	0.17308441
176	0xbd678aa9	-0.05652872
177	0xbd179f75	-0.037017304
178	0x3d806498	0.06269187
179	0x3d27e21e	0.040987127
180	0x3d9f3593	0.0777389
181	0xbde1a8b4	-0.11018506
182	0x3d2b8a48	0.041879922
183	0xbdfe1a43	-0.12407353
184	0x3e84fbe8	0.2597344
185	0xbdd5746f	-0.104225986
186	0x3c3a3dad	0.011367244
187	0xbc397902	-0.011320354
188	0xbda7f89b	-0.082017146
189	0xbed76458	-0.42068744
190	0x3cadb871	0.021206113
191	0x3ddff3a2	0.10935141
192	0xbe70d6b6	-0.23519406
193	0x3db861fc	0.09003064
194	0xbcbed4da	-0.023294855
195	0x3bf52d27	0.007482189
196	0x3cc4033b	0.023927322
197	0x3c81df4f	0.015853552
198	0xbf219319	-0.6311508
199	0xbc5fbb47	-0.01365549
200	0xbd5767db	-0.05258928
201	0xbd2385ee	-0.039922647
202	0x3e385506	0.18001184
203	0xbd8aa78f	-0.067702405
204	0xbe130b34	-0.14359742
205	0xbda20d8d	-0.07912741
206	0xbeeae5f0	-0.45878553
207	0x3d8cfd91	0.068843015
208	0xbdeafc91	-0.114739545
209	0xbadea9ed	-0.0016987898
210	0xbf9a0a08	-1.2034311
211	0xbc8f6468	-0.017503932
212	0x3dc6d7ec	0.097091526
213	0x3d672038	0.05642721
214	0xbd0cca6e	-0.03437274
215	0x3cb7f830	0.022457212
216	0x3e070d64	0.13188702
217	0xbe215c1f	-0.15757798
218	0xbd3e0b5a	-0.046397544
219	0xbda5372e	-0.08067165
220	0x3cc5c697	0.024142547
221	0x3d61e83e	0.055153124
222	0xbcbed5c5	-0.023295293
223	0xbd3fd1e2	-0.04683102
224	0xbc6c6d3d	-0.014430341
225	0x3db6c2c8	0.0892387
226	0xbd649362	-0.055804618
227	0x3b31cc46	0.0027129813
228	0x3d124865	0.035713572
229	0xbe44a812	-0.19204739
230	0x3d147520	0.03624451
231	0xbd63d05d	-0.055618633
232	0xbe2fc70c	-0.17165774
233	0xbcb37ff7	-0.021911604
234	0xbd853b53	-0.06505456
235	0xbd25f5d7	-0.040517654
236	0x3b84f702	0.004057766
237	0x3dd7e44b	0.1054159
238	0xbcf0b706	-0.029384147
239	0xbbed9979	-0.0072509614
240	0xbd1d5adc	-0.03841673
241	0x3da8e57d	0.082468964
242	0x3d64520a	0.0557423
243	0xba85327c	-0.001016214
244	0x3dc54213	0.09631743
245	0xbd32872f	-0.043585952
246	0x3e081d46	0.13292417
247	0xbc8baefb	-0.01705121
248	0xbf29817f	-0.6621322
249	0xbbd8417a	-0.0065996023
250	0xbf1728c9	-0.5904661
251	0x3c3c8944	0.011507336
252	0xbc57f5b5	-0.01318114
253	0x3dda63c0	0.10663557
254	0x3d39c0a4	0.045349732
255	0x3d7ed723	0.06221689

fc2.bias f4 [100]
0	0xbda8ea4d	-0.08247814
1	0x3dfd54bd	0.12369678
2	0x3df888ee	0.12135492
3	0x3cac85ec	0.021059953
4	0xba8c0adc	-0.0010684389
5	0x3d2a32f9	0.041552518
6	0xbd60eb8d	-0.05491214
7	0xbdf19e9c	-0.117978305
8	0x3e183270	0.1486299
9	0xbe2cd0f9	-0.16876592
10	0xbae422d5	-0.00174054
11	0xbec6b998	-0.38813472
12	0xbd3be93f	-0.045876738
13	0x3d867f4b	0.06567248
14	0xbdf07138	-0.11740345
15	0xbead9311	-0.33901265
16	0xbc3ad5bb	-0.011403496
17	0x3d33b47d	0.0438733
18	0xbda9db97	-0.082938366
19	0x3d4d275c	0.050086364
20	0x3d67ec58	0.05662188
21	0x3dad4560	0.08460498
22	0x3c737071	0.014858351
23	0xbe81d8a5	-0.253606
24	0xbe3ea6ae	-0.18618271
25	0x3e866fd6	0.262572
26	0xbd4d517e	-0.050126545
27	0x3d986c1f	0.074424975
28	0xbdeabd88	-0.114619315
29	0x3d6b0793	0.05738027
30	0x3dd92bc8	0.10604054
31	0x3e403584	0.18770415
32	0x3dbb5e0e	0.09148799
33	0x3d9c62ea	0.07636054
34	0x3ceb4037	0.028717143
35	0x3e06da0c	0.13169116
36	0xbe4b3338	-0.19843757
37	0x3c2ba3e3	0.010476085
38	0xbd6d1867	-0.0578846
39	0x3d4ec4bc	0.05048059
40	0xbbd829d8	-0.006596785
41	0x3d2ec629	0.04266945
42	0x3d7c5f59	0.061614368
43	0xbd841337	-0.064489774
44	0x3c9e6627	0.01933582
45	0xbdae9fec	-0.085265964
46	0xbd3958dd	-0.045250762
47	0x3db09910	0.08622944
48	0x3bd6d4b2	0.006556117
49	0x3cbdadf5	0.023154238
50	0x3d0e1d93	0.034696173
51	0x3ce5370a	0.027980346
52	0xb9db7198	-0.0004185557
53	0x3e1bf00c	0.1522829
54	0xbc34a750	-0.0110262185
55	0x3afdab61	0.0019353443
56	0xbc9ac30e	-0.018891837
57	0xbd077122	-0.033066876
58	0xbc8376af	-0.016047804
59	0xbf0758d9	-0.52869946
60	0x3c87e93e	0.01659071
61	0xbd3bc228	-0.04583946
62	0x3c5a190f	0.0133116385
63	0xbe264e0a	-0.16240707
64	0xbcbbff3a	-0.02294885
65	0x3d882351	0.06647361
66	0x3e09dea0	0.13463831
67	0x3dcdb83e	0.10044907
68	0x3dad2504	0.08454326
69	0xbe33afe3	-0.17547564
70	0xbe32cf88	-0.1746198
71	0xbdd43810	-0.103622556
72	0xbdcda272	-0.100407496
73	0x3e18747a	0.14888182
74	0xbdb0a597	-0.08625334
75	0x3e24628f	0.16053222
76	0x3e6ba587	0.23012362
77	0x3ca72950	0.020405442
78	0xbd1d2c83	-0.038372528
79	0xbd864a9f	-0.065572016
80	0x3d18a3c1	0.037265543
81	0x3e063786	0.13107118
82	0xbc998ae5	-0.018742988
83	0xbecd54ab	-0.4010366
84	0x3e0cadcf	0.13738178
85	0x3e153fd9	0.14575137
86	0x3d9fe656	0.07807605
87	0xbdd6ceb3	-0.104886435
88	0xbd306155	-0.043061573
89	0x3d1288f1	0.03577513
90	0x3cb8b4df	0.022547184
91	0xbcd0a20e	-0.025467899
92	0x3e1637c0	0.14669704
93	0x3c54f2bc	0.0129973255
94	0x3e1ab5e1	0.15108444
95	0xbea72f3a	-0.32653219
96	0xbcd418b0	-0.025890678
97	0x3cefd437	0.029275997
98	0x3dc34c91	0.09536088
99	0xbba39dad	-0.0049931617

fc3.weight f4 [1, 100]
0	0xbd54a172	-0.05191178
1	0x3c810e69	0.015753942
2	0x3d2d4c31	0.04230899
3	0x3d352e3d	0.04423355
4	0x3d024fae	0.03181427
5	0xbd3a152b	-0.045430344
6	0x3d6f111c	0.058365926
7	0xbdb7b0e1	-0.08969284
8	0x3c74ff38	0.014953427
9	0xbdb43c05	-0.0880051
10	0xbd445274	-0.047930196
11	0xbd7e36e2	-0.06206406
12	0xbb124cda	-0.002232364
13	0x3c6b8b74	0.01437651
14	0xbc978f08	-0.01850082
15	0xbdd3ef65	-0.10348395
16	0xbe657106	-0.22406396
17	0x3e84e595	0.25956407
18	0x3ded841a	0.11597462
19	0x3dcdec63	0.10054853
20	0xbd143138	-0.03617975
21	0xbd049806	-0.032371543
22	0x3cb49f92	0.022048745
23	0xbde34bba	-0.11098428
24	0xbc9be3e1	-0.01902956
25	0x3c217469	0.0098544145
26	0x3dae2e8f	0.08504974
27	0x3c55bae3	0.013045046
28	0xbda718c7	-0.08159023
29	0xbd187a92	-0.037226267
30	0xbd3772ca	-0.044787206
31	0x3d43ebaf	0.047832187
32	0xbd993de7	-0.0748251
33	0x3da2121e	0.07913612
34	0x3d7d8e21	0.061903123
35	0x3c474749	0.012162992
36	0x3c9694cc	0.018381499
37	0xbc80fca2	-0.015745465
38	0xbdb31ad8	-0.087453544
39	0xbcbb63b1	-0.022874685
40	0x3c81190e	0.015759017
41	0x3d632f34	0.05546494
42	0x3cccc770	0.024997443
43	0x3e3415bb	0.17586415
44	0x3d33b012	0.043869086
45	0x3dd07f56	0.101805374
46	0xbc322887	-0.01087392
47	0xbe825f96	-0.2546355
48	0xbdc8e9e4	-0.09810236
49	0x3d214a28	0.03937736
50	0x3d157c25	0.036495347
51	0xbca24ca3	-0.019811934
52	0xbc8c6070	-0.017135829
53	0x3c89c052	0.016815338
54	0x3c84fbb4	0.016233303
55	0x3c8116b4	0.015757896
56	0x3d629b56	0.05532392
57	0x3d1daf2b	0.03849713
58	0xbd5d8eae	-0.054091148
59	0xbddb0196	-0.10693662
60	0xbda0406d	-0.07824788
61	0xbd370c66	-0.04468956
62	0xbd4d33c8	-0.05009821
63	0xbcda036f	-0.026612965
64	0xbe3b8e93	-0.18316106
65	0xbd0994eb	-0.033589285
66	0x3c2645f5	0.010148515
67	0x3dda5fa1	0.10662771
68	0x3d1734f6	0.03691574
69	0xbc91b919	-0.017788457
70	0xbc058299	-0.008148813
71	0xbd0bc6a4	-0.034124985
72	0xbd12c922	-0.035836346
73	0x3cb8c443	0.022554522
74	0xbd69a294	-0.057039812
75	0x3c9d6fa9	0.019218283
76	0x3dc1259d	0.09431002
77	0x3e233042	0.15936378
78	0xbe106c09	-0.14103712
79	0xbcd6ccc7	-0.026220692
80	0x3b8da0d7	0.004322152
81	0x3ce2c2d5	0.027680794
82	0x3cc6c390	0.024263173
83	0xbda39ca5	-0.07988862
84	0x3dd47e8b	0.10375699
85	0xbc498844	-0.012300555
86	0x3d18c1b9	0.037294123
87	0xbdc539c3	-0.09630158
88	0x3e11a3ab	0.1422259
89	0xbcc0f918	-0.023556277
90	0x3d17d49a	0.037067987
91	0xbdc81f12	-0.09771551
92	0x3d29643f	0.041355368
93	0x3c8d9a78	0.01728557
94	0xbd0e5b3b	-0.034754973
95	0xbe0f26ac	-0.13979596
96	0x3d040197	0.03222808
97	0x3cd706af	0.026248304
98	0x3cde9a4a	0.02717318
99	0xbd9f8f93	-0.077910565
