checkpoint_actor.pth (torch_old, 66250 bytes, 6 tensors)

fc1.weight f4 [128, 24]
0	0x3ea45bd6	0.32101315
1	0xbd644655	-0.055731136
2	0x3d8b5245	0.06802801
3	0xbd4cf620	-0.05003941
4	0x3c757f35	0.014983942
5	0x3d5ad390	0.053424418
6	0x3d22175d	0.039573062
7	0x3d82b849	0.06382806
8	0x3ec9423b	0.39308342
9	0xbd7fd7de	-0.062461726
10	0x3db5e5b1	0.08881701
11	0x3d3eb20a	0.04655651
12	0xbb63c7be	-0.0034756507
13	0xbe511d32	-0.20421293
14	0x3d62b5ea	0.055349268
15	0xbdc36a2a	-0.095417336
16	0x3ec4cb84	0.3843652
17	0xbe408f9b	-0.18804781
18	0xbd02a173	-0.03189225
19	0x3d0fa566	0.035069846
20	0xbdc855f1	-0.09782017
21	0xbe55ea77	-0.20890222
22	0x3db2374a	0.08701952
23	0xbca1af1a	-0.019736815
24	0xbd45f228	-0.04832664
25	0xbe6ba6f6	-0.2301291
26	0xbd3223ef	-0.0434913
27	0xbd0e3d0d	-0.03472619
28	0xbec2b8fb	-0.38031754
29	0x3e03ba60	0.12864065
30	0xbd4ba63d	-0.049719084
31	0xbccd4e74	-0.025061823
32	0xbdf75508	-0.12076765
33	0xbe537d78	-0.20653331
34	0x3d21b5f7	0.039480176
35	0x3c8302d0	0.015992552
36	0xbec9b256	-0.39393872
37	0xbe5bbf7c	-0.21459764
38	0xbb0a635b	-0.002111635
39	0x3d80e678	0.062939584
40	0xbe3fe779	-0.18740644
41	0xbe29396e	-0.16525814
42	0x3c014dfc	0.007892128
43	0x3dbb344c	0.09140834
44	0xbe1b0ebd	-0.15142341
45	0xbf052aa7	-0.5201821
46	0xbc555f72	-0.013023244
47	0xbcfcdd1e	-0.030867156
48	0x3e4c4eb2	0.19951895
49	0x3d8dd8ae	0.06926094
50	0x3cc4dd2c	0.024031244
51	0x3e685478	0.22688472
52	0x3f26a2f9	0.65092427
53	0xbe9b6fdb	-0.30358776
54	0x3d38dc93	0.04513223
55	0x3e2dd470	0.1697557
56	0x3df1870b	0.117933355
57	0xbd9a428e	-0.075322255
58	0x3d726989	0.059182677
59	0x3dde2eed	0.10848794
60	0x3ec8f657	0.39250442
61	0xbe8daf50	-0.27672815
62	0x3d801b76	0.06255238
63	0xbc8feda6	-0.017569374
64	0x3dda199e	0.10649417
65	0xbd6d2cd9	-0.0579041
66	0xbe2319f3	-0.15927868
67	0x3e9cb978	0.3061025
68	0x3dae7c27	0.08519774
69	0xbea9d423	-0.3316966
70	0xbe058c5e	-0.13041827
71	0x3ec724aa	0.3889516
72	0xbd7f744f	-0.06236678
73	0xbee37855	-0.44427744
74	0xbc9bcc9e	-0.019018468
75	0xbe44962c	-0.19197911
76	0x3e360f53	0.17779283
77	0x3e228720	0.15871859
78	0xbd514388	-0.051089793
79	0xbdff2a92	-0.124592915
80	0x3e1ec790	0.15505815
81	0xbe8d23d7	-0.27566406
82	0xbe1438a1	-0.14474727
83	0x3c9f91f3	0.019478774
84	0xbc1e605d	-0.0096665295
85	0xbd62a4c3	-0.05533291
86	0xbdaf31a9	-0.08554394
87	0xbc4d9f29	-0.012550154
88	0x3da33a43	0.07970097
89	0xbed63b09	-0.41841915
90	0x3d4c3c14	0.049861982
91	0xbbeb6716	-0.0071839197
92	0xbe64ceb9	-0.22344483
93	0xbd08d604	-0.033407226
94	0xbc15113e	-0.009098349
95	0xbd415ea1	-0.047209386
96	0xbdba0dd9	-0.090846725
97	0x3ee041f0	0.43800306
98	0xbc6392d8	-0.013889991
99	0x3d9bd3ed	0.07608781
100	0xbda69541	-0.08133937
101	0xbd833c4a	-0.064079836
102	0x3d7294c6	0.059223913
103	0x3d4cf2c6	0.050036214
104	0xbe856d55	-0.26059976
105	0x3eff5069	0.49866036
106	0x3d630d7f	0.055432793
107	0x3d1d489d	0.038399328
108	0xbd4b4424	-0.04962553
109	0xbecc3836	-0.39886636
110	0x3affc7de	0.0019514521
111	0x3de55a0c	0.11198816
112	0xbe9ad31e	-0.30239195
113	0x3f0fccd7	0.56171936
114	0xbdcf449a	-0.101205066
115	0x3e69891b	0.22806208
116	0x3dcd9e31	0.10039938
117	0xbf65d759	-0.8978172
118	0x3c509685	0.012731199
119	0x3e401629	0.18758453
120	0x3d3eb936	0.04656335
121	0xbd0a6b64	-0.033793822
122	0xbd8e67b3	-0.06953373
123	0xbe284559	-0.16432704
124	0x3e4e7ab6	0.20163998
125	0x3e5e31cf	0.21698688
126	0x3d0af53a	0.033925273
127	0xbe25ea19	-0.16202582
128	0xbd912260	-0.07086635
129	0xbca1b0fd	-0.019737715
130	0xbdad8824	-0.084732324
131	0x3e09edc3	0.13469605
132	0x3e401ebd	0.18761726
133	0x3df63292	0.12021364
134	0xbdc68c1f	-0.09694695
135	0x3e29b0ea	0.16571394
136	0xbcb14a53	-0.021641886
137	0xbe1bab3a	-0.15202036
138	0xbcf57a14	-0.029965438
139	0xbe785468	-0.24250948
140	0x3e26d2bd	0.16291328
141	0x3dbb4634	0.091442496
142	0xbd2c80e1	-0.042115096
143	0xbe8c9ef0	-0.2746501
144	0x3e057bd5	0.1303552
145	0xbe34a43c	-0.17640775
146	0xbdafe976	-0.08589451
147	0x3dc34a44	0.095356494
148	0xbe494e07	-0.19658671
149	0xbe5a1bd1	-0.21299674
150	0xbd6444a3	-0.05572952
151	0x3dc36d9e	0.09542392
152	0x3e0894d9	0.13338031
153	0xbb2a799e	-0.002601243
154	0xbc77af3e	-0.015117465
155	0x3def7dcd	0.116939165
156	0x3c41e8b8	0.01183527
157	0xbde56fa8	-0.11202937
158	0x3ce59805	0.02802659
159	0x3dd88fcb	0.10574301
160	0x3db71ee3	0.08941438
161	0xbe292c53	-0.16520815
162	0xbd61627d	-0.055025566
163	0xbe8a1df0	-0.26975965
164	0x3b5296d5	0.003213336
165	0x3eab72af	0.33485934
166	0xbd764865	-0.060127635
167	0xbe675e68	-0.22594607
168	0x3e060091	0.13086154
169	0xbe095112	-0.13409832
170	0xba336b93	-0.0006844338
171	0xbc9cdceb	-0.01914831
172	0x3e62d473	0.22151355
173	0xbe4ffba2	-0.20310834
174	0xbd256467	-0.040378954
175	0xbe1aaf71	-0.15105988
176	0x3ea6eb4b	0.3260139
177	0x3d27d26e	0.040972166
178	0x3e2ba9f5	0.16764052
179	0x3cbb45ce	0.022860434
180	0x3d77ab1f	0.06046593
181	0xbe310d5b	-0.17290251
182	0x3dda7d9f	0.106684916
183	0xbcfb95c6	-0.030711066
184	0x3e841ce2	0.25803286
185	0xbde2d4d0	-0.11075747
186	0xbd41a4a4	-0.047276154
187	0xbe300eb2	-0.17193106
188	0xbe268058	-0.16259897
189	0xbd28983f	-0.04116082
190	0xbca2c408	-0.019868866
191	0xbd9e1ab5	-0.07719938
192	0xbd8897a5	-0.06669549
193	0xbeacd3a9	-0.33755234
194	0x3d9be12e	0.07611309
195	0xbd5b7bd9	-0.053584907
196	0x3dccffed	0.100097515
197	0xbd921150	-0.07132208
198	0x3d05ed7e	0.032697193
199	0x3cde6902	0.027149681
200	0xbd958680	-0.073010445
201	0xbed67aba	-0.41890508
202	0x3da1f0b9	0.07907242
203	0x3e05afea	0.13055387
204	0x3d60553e	0.054768793
205	0xbdcba618	-0.09943789
206	0xbca52d7d	-0.020163292
207	0x3d5fc0d1	0.054627243
208	0xbd8ac302	-0.06775476
209	0xbea2a552	-0.31766754
210	0xbc01bf47	-0.007919139
211	0x3dfac21a	0.12244053
212	0x3d83f934	0.06444016
213	0xbd890979	-0.0669126
214	0x3e0ff994	0.1406005
215	0x3de66637	0.11249965
216	0x3d8a4efb	0.067533456
217	0xbebe6bf9	-0.37191752
218	0xba838211	-0.001003327
219	0xbe179ce2	-0.1480594
220	0xbcd67a43	-0.026181346
221	0x3f01c9e0	0.5069866
222	0x3c346335	0.011009981
223	0xbd997740	-0.07493448
224	0x3dc8f11f	0.09811615
225	0xbe9d6c3b	-0.30746636
226	0x3d65792c	0.05602376
227	0x3daf97fa	0.08573909
228	0xbd60fec0	-0.05493045
229	0x3cf48f90	0.029853612
230	0xbd12b570	-0.035817564
231	0x3d8c11d5	0.06839339
232	0x3e1334e9	0.14375652
233	0xbedfb1c1	-0.43690303
234	0x3d8851aa	0.06656201
235	0x3da14e9f	0.07876324
236	0xbea5b92f	-0.32367846
237	0xbedba37f	-0.42898175
238	0x3cf222b1	0.029557558
239	0x3de1f66f	0.110333316
240	0xbd3adf72	-0.04562325
241	0xbdce2541	-0.10065699
242	0x3cd58318	0.026063487
243	0x3da5008c	0.08056745
244	0xbe0e299e	-0.13883063
245	0x3cd96f6e	0.026542392
246	0xbcc7b225	-0.024376938
247	0x3d3b6d62	0.045758612
248	0x3c692ca5	0.0142318355
249	0xbd0e0dde	-0.034681194
250	0x3d09886e	0.033577375
251	0xbd481504	-0.048848167
252	0xbe681c96	-0.22667155
253	0xbd14a7a0	-0.036292672
254	0xbbe63f08	-0.007026557
255	0x3cd252a7	0.025674177

fc1.bias f4 [128]
0	0xbc6520ae	-0.013984842
1	0x3e255ee7	0.16149484
2	0xbe12156d	-0.14265986
3	0x3cfbc3a4	0.030732937
4	0x3e412e13	0.18865232
5	0x3e2f0ff3	0.17095928
6	0x3cc38dbb	0.023871293
7	0x3d7ecdfb	0.062208157
8	0xbe0cf483	-0.13765149
9	0x3e5dc9a8	0.21658957
10	0x3e071b60	0.13194036
11	0xbdae2204	-0.08502582
12	0x3c3979a7	0.011320508
13	0x3e18c430	0.1491859
14	0xbe8da509	-0.27664974
15	0xbd44335e	-0.04790055
16	0x3dac690b	0.08418473
17	0xbe9a372a	-0.30120212
18	0xbe4d32d4	-0.2003892
19	0xbdc3542e	-0.095375404
20	0xbe860b9b	-0.2618073
21	0xbb5d1e38	-0.0033739936
22	0x3dff76c9	0.12473828
23	0x3c4526bc	0.012033161
24	0xbe8c76c7	-0.2743437
25	0xbe2833a0	-0.16425943
26	0x3d659e5c	0.056059226
27	0x3ce42921	0.027851643
28	0x3e45ade7	0.1930462
29	0x3e1b57bd	0.15170188
30	0x3e0d0db8	0.13774765
31	0xbbfe62c7	-0.00776324
32	0xbca0949f	-0.019602118
33	0xba91f9cc	-0.0011137067
34	0x3d679b5c	0.056544647
35	0x3eb2f5cd	0.34953156
36	0x3d180279	0.037111733
37	0x3cd7d47a	0.026346434
38	0xbe152b6b	-0.14567344
39	0xbe8195d5	-0.25309625
40	0xbde5ab45	-0.11214308
41	0x3e657555	0.2240804
42	0x3e639034	0.22222978
43	0xbe59b837	-0.21261679
44	0xbda18cc3	-0.07888176
45	0xbe3ee86a	-0.18643346
46	0x3c985418	0.018594787
47	0x3e99d70d	0.30046883
48	0x3c30b084	0.010784272
49	0xbc8c6a76	-0.017140608
50	0x3edd5a71	0.43233064
51	0x3b751891	0.0037398676
52	0x3db16dbd	0.08663509
53	0x3e2f962e	0.17147133
54	0xbdb128c3	-0.08650353
55	0xbd244755	-0.04010709
56	0xbd92125a	-0.071324065
57	0xbe2d8bfc	-0.16947931
58	0x3d0e7cc9	0.034786973
59	0x3e4fc038	0.2028817
60	0x3ed1c6b8	0.40971923
61	0x3e2444e6	0.16041908
62	0xbe52959f	-0.20564888
63	0x3d49c57f	0.049260613
64	0x3e553c7c	0.20823854
65	0xbe85fc99	-0.2616928
66	0x3dd79545	0.10526518
67	0x3ed5e27f	0.41774365
68	0xbd9429c0	-0.07234526
69	0x3bef18fe	0.0072966805
70	0xbd70f644	-0.058828607
71	0x3d9ee316	0.07758157
72	0xbdb4dd12	-0.08831228
73	0xbebaf476	-0.36514634
74	0xbdc34d9c	-0.09536287
75	0xbe4ef755	-0.20211537
76	0x3ea30c49	0.3184531
77	0xbe1af15f	-0.15131138
78	0x3cc35eab	0.023848852
79	0x3e34a037	0.17639242
80	0xbe65dc74	-0.22447377
81	0xbda494a2	-0.08036162
82	0x3e03d847	0.12875472
83	0xbe55b9b0	-0.20871615
84	0x3e0967f5	0.13418563
85	0xbd22213d	-0.03958248
86	0x3d108387	0.035281684
87	0x3e964ac7	0.29353926
88	0xbdc8065d	-0.09766839
89	0x3ce5be20	0.02804476
90	0x3e19cb92	0.15019062
91	0xbe1bf3b9	-0.15229692
92	0xbe7e6acc	-0.24845427
93	0x3e1a4da8	0.15068686
94	0xbe8a1c02	-0.26974493
95	0x3d103d7d	0.03521489
96	0x3e2261e9	0.15857662
97	0x3db789ae	0.08961807
98	0x3e8eb398	0.27871394
99	0x3edd6469	0.4324067
100	0x3e3f2ebd	0.18670173
101	0x3e675d49	0.22594179
102	0xbe83690f	-0.2566609
103	0x3dd1e30c	0.10248384
104	0xbe82dfb0	-0.25561285
105	0x3e1d4f85	0.15362366
106	0x3ea1e367	0.31618807
107	0x3e48e11e	0.19617125
108	0xbd31025f	-0.043215152
109	0xbec61da6	-0.38694495
110	0xbe5b8e23	-0.2144094
111	0xbe38a9e5	-0.1803356
112	0xbd632959	-0.055459354
113	0xbd829389	-0.06375796
114	0xbe4aa91c	-0.19791073
115	0x3e390ef8	0.18072116
116	0xbe17b8bc	-0.14816564
117	0x3ebbaf19	0.36657026
118	0xbd635b0f	-0.055506762
119	0xbdde1ad4	-0.10844961
120	0xbd83355c	-0.06406662
121	0xbded3cd4	-0.11583868
122	0xbec250d3	-0.3795229
123	0x3e12dc93	0.14341955
124	0x3cf0ccc9	0.029394524
125	0xbd87dda5	-0.06634072
126	0xbde43e8c	-0.11144742
127	0x3c81a441	0.015825393

fc2.weight f4 [100, 128]
0	0x3eabe494	0.3357283
1	0xbe87138e	-0.26382107
2	0xbe6c9d39	-0.2310685
3	0x3d7df972	0.062005468
4	0x3d19d315	0.03755482
5	0x3e86743c	0.26260555
6	0x3e238043	0.15966897
7	0x3da4e593	0.080516
8	0xbdd9d662	-0.106365934
9	0xbd0ae91f	-0.033913728
10	0xbd81bea9	-0.06335194
11	0x3db694e8	0.0891512
12	0x3e06841e	0.13136336
13	0xbe451b03	-0.19248585
14	0x3df81ae4	0.12114504
15	0x3e868a07	0.26277182
16	0x3e87b264	0.2650329
17	0xbe2c66ea	-0.16836134
18	0xbebec7b9	-0.3726175
19	0xbd7a88eb	-0.06116573
20	0xbd970ed3	-0.07375874
21	0xbcf7d8aa	-0.03025468
22	0x3c6d2197	0.0144733405
23	0xbe448286	-0.19190416
24	0x3c6ae4e7	0.014336801
25	0x3ed4057d	0.41410437
26	0xbe457e8f	-0.1928656
27	0xbdf293ac	-0.118445724
28	0xbf1de47e	-0.61676776
29	0xbcf63c73	-0.030058121
30	0x3d990166	0.0747097
31	0xbe062407	-0.13099681
32	0xbe4e7e20	-0.201653
33	0xbcd75860	-0.026287258
34	0xbdce697c	-0.10078713
35	0xbdc983f9	-0.09839625
36	0xbdb480fb	-0.088136636
37	0xbdf1d29b	-0.11807748
38	0x3e33d705	0.17562492
39	0x3d580393	0.052737784
40	0x3e781720	0.24227571
41	0x3dc3684f	0.0954138
42	0x3cff8ede	0.031196054
43	0xbe90b380	-0.28261948
44	0x3c16903c	0.009189662
45	0xbdb3281c	-0.08747885
46	0x3e15dece	0.14635774
47	0xbe203ff0	-0.1564939
48	0x3cd4dfac	0.025985561
49	0x3e34af1c	0.17644924
50	0xbe4b9f0c	-0.1988489
51	0xbd92dc44	-0.071709186
52	0x3ee5bfbc	0.44872844
53	0x3e8e2990	0.27766085
54	0x3e19b9f3	0.1501234
55	0x3beaaddf	0.0071618403
56	0x3e0524e2	0.13002351
57	0x3e88aea8	0.26695752
58	0x3e004648	0.1252681
59	0x3bcc9ee8	0.006244529
60	0xbcf6f0b2	-0.03014407
61	0xbe8db684	-0.2767831
62	0x3d374ef9	0.04475305
63	0x3de6682f	0.1125034
64	0xbe365f4b	-0.17809789
65	0x3d35406c	0.04425089
66	0xbd2d5690	-0.04231888
67	0xbd8b40c6	-0.06799464
68	0x3cb0b8ba	0.02157246
69	0xbde00eb2	-0.10940303
70	0x3dee058c	0.11622152
71	0xbe0e0ca7	-0.13872014
72	0x3d0a286c	0.033729956
73	0x3ec96ea8	0.39342237
74	0x3c6bae56	0.014384827
75	0xbd8a6c12	-0.06758894
76	0x3b2cd31d	0.002637095
77	0xbe2d0551	-0.1689656
78	0xbd729468	-0.059223562
79	0x3c8f5408	0.017496124
80	0x3e760239	0.24024285
81	0x3d83834c	0.06421527
82	0x3ca842c7	0.020539654
83	0xbdb3ead6	-0.08785026
84	0xbe1f4afa	-0.15555945
85	0xbcfa227b	-0.03053402
86	0x3dc976d8	0.09837121
87	0x3ce78d84	0.028265722
88	0x3d7ddd50	0.06197864
89	0x3e156191	0.14588
90	0x3e470608	0.19435894
91	0x3e9ab0a3	0.30212888
92	0xbe28d3c6	-0.16487035
93	0xbda7418e	-0.081668004
94	0xbd190310	-0.037356436
95	0xbe1a8131	-0.15088345
96	0x3d7e68a0	0.062111497
97	0xbf998745	-1.1994406
98	0xbe2e5777	-0.17025553
99	0xbe061b59	-0.1309637
100	0xbc5041dd	-0.0127110155
101	0x3d11cbf2	0.035594888
102	0x3dc366ed	0.09541116
103	0x3df44be0	0.119285345
104	0xbc94ba12	-0.018155131
105	0xbdad5600	-0.08463669
106	0x3d953edc	0.0728738
107	0x3db2d29d	0.087315775
108	0xbd46e040	-0.048553705
109	0xbd5a8cac	-0.05335681
110	0xbd910632	-0.0708126
111	0xbf7a4539	-0.97761875
112	0xbe06ab6a	-0.13151327
113	0x3de8f71d	0.11375258
114	0x3e4c0ef3	0.19927578
115	0xbc3a6c96	-0.011378428
116	0x3ca3784c	0.019954823
117	0x3c8dc099	0.017303752
118	0x3c067e3f	0.00820881
119	0xbd3f74fe	-0.04674243
120	0x3cd6bef9	0.02621411
121	0x3c7a125d	0.015263167
122	0xbe5ed103	-0.21759419
123	0xbde84f64	-0.113432676
124	0xbe39df25	-0.18151529
125	0x3e4259ac	0.1897952
126	0xbdae1e17	-0.08501833
127	0x3d897f3c	0.06713721
128	0xbae742d5	-0.0017643819
129	0xbe934ea9	-0.2877095
130	0xbe92c629	-0.2866681
131	0x3e25f15f	0.16205357
132	0xbd1a7ffe	-0.03771972
133	0x3daa9efc	0.08331105
134	0x3d9946b5	0.074841894
135	0x3d1b8876	0.037971936
136	0xbce2e699	-0.027697848
137	0x3d03c477	0.032169785
138	0xbe87bb4d	-0.26510087
139	0x3e288ac9	0.16459192
140	0xbdbba06b	-0.09161457
141	0x3db7acb0	0.089684844
142	0x3da247fb	0.079238854
143	0x3eb6d1ec	0.35707033
144	0x3e3bc786	0.18337831
145	0x3eaddace	0.33955997
146	0xbde6b408	-0.11264807
147	0xbdff8ec1	-0.124784
148	0x3e38cc58	0.18046701
149	0xbecffb3a	-0.40621358
150	0xbe680d75	-0.22661383
151	0x3e56a56c	0.20961541
152	0xbba6348d	-0.0050721825
153	0x3ddf9b82	0.10918333
154	0x3b9cc02f	0.0047836523
155	0xbeb4aaec	-0.35286653
156	0x3e523b88	0.20530522
157	0xbeae1296	-0.33998555
158	0xbd8d196c	-0.068896145
159	0xbd712d9e	-0.058881395
160	0xbe034e07	-0.12822734
161	0xbc091bd4	-0.008368451
162	0x3e341e98	0.17589796
163	0x3e7029fc	0.23453516
164	0x3c7f00e6	0.015564179
165	0xbde414a9	-0.11136753
166	0xbdcdec31	-0.100548156
167	0xbddd99f6	-0.10820381
168	0x3d9d7b52	0.07689537
169	0xbd0610b2	-0.032730766
170	0xbe93c45b	-0.28860745
171	0xbeb6ea6b	-0.35725722
172	0xbdd070e6	-0.10177784
173	0xb9ad2c3b	-0.00033030086
174	0x3e30c7b7	0.17263685
175	0xbe612109	-0.21985258
176	0xbc783168	-0.015148498
177	0x3d57b101	0.05265904
178	0x3e0f001c	0.13964885
179	0xbbaf0105	-0.0053406977
180	0xbe3f3406	-0.18672189
181	0x3dca8bef	0.098899715
182	0x3e72ea9f	0.23722313
183	0x3de04872	0.10951318
184	0x3df2e47d	0.11859987
185	0xbc85464f	-0.016268877
186	0xbd1bb02c	-0.038009807
187	0xbe839650	-0.25700617
188	0xbda6fae1	-0.0815332
189	0xbdfc7dae	-0.12328659
190	0x3e34f55c	0.17671722
191	0x3ec5e39f	0.38650224
192	0xbd9a7eb6	-0.075436994
193	0x3e20ebf5	0.1571501
194	0xbe7869fd	-0.24259181
195	0xbd48e473	-0.04904599
196	0xbd9d34ca	-0.07676084
197	0x3ea8cc5f	0.32968423
198	0x3e5dc8c6	0.2165862
199	0x3e54134e	0.20710489
200	0x3cc69232	0.024239633
201	0xbd0ec39f	-0.034854528
202	0x3e1441e7	0.14478265
203	0xbcac4861	-0.021030607
204	0xbe629fc2	-0.22131255
205	0x3d813bc3	0.06310227
206	0x3e050ba9	0.12992729
207	0xbd8f3404	-0.06992343
208	0x3d536bd3	0.0516165
209	0x3cb2307e	0.021751639
210	0x3e4dd1e7	0.20099603
211	0x3be74bd9	0.0070586023
212	0x3d5c0d2e	0.053723507
213	0x3d8fc9b9	0.070208974
214	0xbe0ceec7	-0.13762961
215	0xbe859aef	-0.26094767
216	0x3da7bfca	0.08190878
217	0xbd8c422b	-0.06848558
218	0xbe6ceae4	-0.23136479
219	0x3d0824f9	0.033238385
220	0xbdb4b016	-0.08822648
221	0x3e9ee334	0.31032717
222	0x3eb87e9d	0.36034098
223	0xbe7fb4c2	-0.24971297
224	0x3df26f74	0.11837664
225	0xbf023a23	-0.5086996
226	0xbd565d3c	-0.05233501
227	0xbe876812	-0.26446587
228	0x3e1098be	0.14120767
229	0xbe512147	-0.2042285
230	0x3dd9cc47	0.10634666
231	0xbd6dd2b4	-0.05806227
232	0x3d809bfb	0.06279751
233	0xbddb7c1a	-0.1071703
234	0xbde67f41	-0.112547405
235	0x3e9b9be0	0.3039236
236	0xbe835b15	-0.25655428
237	0x3d2dff88	0.04248002
238	0x3d148bac	0.036266014
239	0xbe30073d	-0.17190261
240	0x3d995a3f	0.07487916
241	0xbe836ca0	-0.25668812
242	0xbbbc65a7	-0.0057494226
243	0x3cabcc64	0.020971484
244	0x3d95dd46	0.07317595
245	0xbed20584	-0.41019833
246	0xbd1b3c33	-0.037899207
247	0x3c9cba8a	0.019131918
248	0xbe6f1de4	-0.23351246
249	0x3d6ffe47	0.058592107
250	0x3d3f73f1	0.04674143
251	0xbe0c7877	-0.13717829
252	0x3ba51237	0.005037572
253	0x3dc2a8fa	0.09504886
254	0xbe305ad8	-0.17222154
255	0x3e711f38	0.23547065

fc2.bias f4 [100]
0	0x3c79501b	0.015216853
1	0x3c8196ae	0.01581892
2	0xbda46119	-0.080263324
3	0xbde8e65a	-0.11372061
4	0x3e051023	0.12994437
5	0x3e1b6658	0.1517576
6	0xbc45eabb	-0.01207989
7	0x3ca769ed	0.020436252
8	0xbcaac623	-0.020846432
9	0xbdd7a1fb	-0.10528942
10	0xbe00e854	-0.12588626
11	0x3d7c391f	0.061577912
12	0xbdbe327b	-0.09286972
13	0x3d45f5a4	0.048329964
14	0x3dcb2e36	0.099209234
15	0xbccf1764	-0.025279708
16	0xbea70c87	-0.32626745
17	0x3c250768	0.010072567
18	0xbd997ade	-0.07494138
19	0xbcc265b9	-0.023730146
20	0xbd601327	-0.054705765
21	0xbd403e20	-0.046934247
22	0xbd1c4dee	-0.038160257
23	0x3daefd53	0.085444115
24	0xbdf5958b	-0.11991414
25	0x3ce83735	0.028346637
26	0xbd50abd0	-0.050945103
27	0xbe254c6b	-0.16142432
28	0xbc42bac7	-0.0118853515
29	0x3dc05b7c	0.09392449
30	0xbd321518	-0.043477148
31	0x3d1a6566	0.037694357
32	0x3d0753c5	0.033038873
33	0xbd1a9bf8	-0.0377464
34	0x3d3131a3	0.043260228
35	0xbcf89e89	-0.030349033
36	0x3e11066c	0.14162606
37	0x3d535404	0.051593795
38	0xbbe4c9c6	-0.006982061
39	0x3dea8604	0.11451343
40	0x3df6a1e2	0.120425954
41	0x3b8a8edc	0.004228456
42	0x3de48ee9	0.111600704
43	0xbc476ab6	-0.012171438
44	0xbd026e7f	-0.03184366
45	0x3cd6ac90	0.026205331
46	0xbd23d334	-0.03999634
47	0xbe4be36b	-0.19910972
48	0xbd7031a0	-0.058641076
49	0x3cb60f01	0.022223951
50	0x3cddc8bc	0.027073257
51	0x3bf3baeb	0.007438054
52	0x3dd4934f	0.103796594
53	0xbcd27f2d	-0.025695408
54	0xbc98d430	-0.018655866
55	0xbc39caac	-0.011339825
56	0x3dbcebba	0.09224649
57	0xbd4db8d7	-0.050225105
58	0xbd519eff	-0.05117702
59	0xbb953448	-0.0045533516
60	0xbdd4aea7	-0.10384875
61	0xbe0df6fc	-0.13863748
62	0x3daf92eb	0.08572944
63	0xbdbeda34	-0.09318963
64	0x3bbc6356	0.0057491465
65	0xbd08cbea	-0.033397593
66	0x3bb2730e	0.0054458445
67	0xbdbd099b	-0.09230348
68	0xbd3b2bfd	-0.045696247
69	0xbdb33f0f	-0.08752262
70	0xbe0ddd94	-0.13854057
71	0x3e2c80d3	0.16846018
72	0x3c166eb1	0.009181664
73	0xbb0e1b36	-0.00216837
74	0xbdf8de1a	-0.121517375
75	0xbb9a8b30	-0.0047162995
76	0xbd23ae89	-0.03996137
77	0xbc4e1655	-0.012578567
78	0xbd99224b	-0.07477244
79	0x3b9039e2	0.0044014314
80	0xbc95dd11	-0.01829389
81	0xbd9828d2	-0.07429661
82	0xbc76eeee	-0.015071614
83	0xbbf7e1ac	-0.007564744
84	0x3e5e9f0b	0.21740358
85	0x3dc43ddc	0.09582111
86	0xbc3dbe8b	-0.0115810735
87	0xbe122109	-0.14270414
88	0xbb2bfc9c	-0.0026243096
89	0xbda767b2	-0.08174075
90	0xbe0df466	-0.13862762
91	0xbe01f5d4	-0.12691432
92	0xbd9055db	-0.07047626
93	0xbd426d3d	-0.04746746
94	0xbd31c018	-0.043396086
95	0xbd483353	-0.04887707
96	0xbd0167f7	-0.03159329
97	0xbc4259aa	-0.011862198
98	0xbc88aa4e	-0.01668277
99	0x3aa9bb62	0.0012949521

fc3.weight f4 [2, 100]
0	0xbd8aa64a	-0.06769998
1	0xbf3a4b38	-0.72771025
2	0xbd7b9b92	-0.06142766
3	0xbdd6551a	-0.104654506
4	0x3e179e22	0.14806417
5	0xbd931ad6	-0.07182853
6	0x3e2830ee	0.16424915
7	0xbdee6d3a	-0.11641927
8	0xbebe2df7	-0.37144443
9	0xbda55100	-0.0807209
10	0xbe760d05	-0.24028404
11	0x3f04a474	0.51813436
12	0xbd93e815	-0.072220005
13	0xbf0c706c	-0.5485904
14	0x3d37d051	0.0448764
15	0x3c4966bd	0.012292561
16	0x3f5f16b0	0.87143993
17	0x3cb79f42	0.022414807
18	0xbef9285a	-0.48663598
19	0x3db7a756	0.08967464
20	0xbe491c16	-0.1963962
21	0xbddd83e3	-0.10816171
22	0xbe0a8948	-0.13528931
23	0x3e190892	0.14944676
24	0xbf84c9bf	-1.0374068
25	0x3dcde9f3	0.10054388
26	0xbe1f2f25	-0.15545328
27	0xba9c329e	-0.001191694
28	0xbe0f0523	-0.13966803
29	0xbf0ca80a	-0.5494391
30	0xbd89b8b9	-0.06724686
31	0xbdc61625	-0.096721925
32	0xbe51a4e0	-0.20473051
33	0xbc71df70	-0.014762744
34	0x3edc3292	0.43007332
35	0xbf1722be	-0.5903739
36	0x3ebd1f14	0.36937773
37	0xbe51728c	-0.20453852
38	0xbe8dc07d	-0.2768592
39	0x3d094628	0.03351417
40	0x3e644bf5	0.222946
41	0xbd683838	-0.05669424
42	0xbd817da9	-0.06322796
43	0xbe1a5eca	-0.15075222
44	0x3e8634b8	0.26212096
45	0xbe17a3c1	-0.14808561
46	0xbde96cca	-0.11397703
47	0x3eaa5398	0.33266902
48	0x3dba64a9	0.09101231
49	0x3d0907d7	0.033454742
50	0xbf8b07d3	-1.0861763
51	0x3e4b2c3c	0.19841093
52	0x3ec4f1b7	0.38465664
53	0xbe4372c8	-0.19086754
54	0xbe66aea1	-0.22527553
55	0xbcde9a6c	-0.027173243
56	0x3d9a70e2	0.07541062
57	0xba70993c	-0.0009178107
58	0xbe5ed4ef	-0.21760915
59	0xbdf02c93	-0.11727252
60	0x3c3491d2	0.011021094
61	0xbe16bde5	-0.14720877
62	0x3d347964	0.04406108
63	0xbee4136d	-0.4454607
64	0x3dd6ce3a	0.10488553
65	0xbde6dda0	-0.1127274
66	0x3e9552ef	0.29164836
67	0x3e2a34d7	0.1662172
68	0xbd180258	-0.03711161
69	0xbd9a5b54	-0.07536951
70	0x3eca4ae1	0.39510253
71	0x3d46b9ba	0.048516966
72	0x3d9e27fa	0.07722469
73	0xbe2f9f9f	-0.17150734
74	0xbe865cb3	-0.262426
75	0xbd492153	-0.049104046
76	0x3dd7560e	0.105144605
77	0xbe192b05	-0.14957817
78	0xbe51132b	-0.20417468
79	0xbdb0e9cf	-0.086383455
80	0x3dd6674e	0.104689226
81	0xbd89111e	-0.06692718
82	0xbea6af00	-0.3255539
83	0xbe0d0613	-0.13771848
84	0x3da59768	0.08085519
85	0x3c90c9de	0.017674383
86	0x3e83ffc7	0.2578108
87	0xbcc439db	-0.023953369
88	0xbeac95c9	-0.33708027
89	0x3d8a3845	0.06749014
90	0xbda6e232	-0.08148612
91	0xbea5bfda	-0.32372934
92	0xbeb2aaa8	-0.34895825
93	0xbda82c57	-0.08211582
94	0x3c963119	0.018333958
95	0xbf13fd41	-0.5780831
96	0xbeb6ed5d	-0.3572797
97	0x3e1ea35a	0.15492001
98	0x3db0975b	0.08622619
99	0x3d5e7df9	0.054319356
100	0x3f505805	0.8138431
101	0xbe70e12e	-0.23523399
102	0xbea55da3	-0.32298002
103	0xbde74529	-0.11292488
104	0xbe96e441	-0.2947102
105	0x3f1190d9	0.56861645
106	0xbf17a9c4	-0.59243417
107	0xbf72ded6	-0.9487127
108	0x3eeefccb	0.4667724
109	0xbdefead2	-0.1171471
110	0x3e861790	0.26189852
111	0x3e3233a9	0.1740252
112	0x3edbeb30	0.4295287
113	0xbe8434b2	-0.25821453
114	0xbef20021	-0.47265723
115	0x3e14497e	0.1448116
116	0x3f1d1333	0.6135742
117	0xbce604aa	-0.028078396
118	0x3d886b75	0.06661121
119	0xbe923314	-0.28554595
120	0xbe36cef5	-0.17852385
121	0x3d317bbe	0.0433309
122	0xbd8a76cb	-0.06760939
123	0x3e8fbbdf	0.28073022
124	0xbe8072d4	-0.25087607
125	0x3f811a30	1.0086117
126	0x3d333b90	0.043757975
127	0x3f1a70a8	0.6032815
128	0xbee627ae	-0.44952148
129	0xbea34d5d	-0.3189496
130	0xbe9cf174	-0.30652964
131	0xbec01deb	-0.37522826
132	0x3f0448ce	0.5167359
133	0x3e0b6748	0.13613617
134	0xbf8db05f	-1.1069449
135	0x3da0c31f	0.078497164
136	0xbe071e12	-0.13195065
137	0x3ef8baf0	0.48580122
138	0x3e763418	0.2404331
139	0xbea4d13d	-0.32190886
140	0xbeffb232	-0.4994064
141	0xbe822b84	-0.25423825
142	0xbebbb20d	-0.3665928
143	0xbc0d7888	-0.008634694
144	0xbe92b13e	-0.2865085
145	0xbdde3919	-0.10850734
146	0x3efbf358	0.49209094
147	0x3f65232c	0.89506793
148	0x3d89ed88	0.067347586
149	0x3eca00fd	0.3945388
150	0xbe363edf	-0.17797421
151	0xbde12176	-0.1099271
152	0xbd360d21	-0.044446114
153	0x3de6aecd	0.11263809
154	0x3ee917ff	0.4552612
155	0x3ec05eac	0.3757223
156	0x3e592b28	0.21207869
157	0x3ec30ba4	0.3809482
158	0x3dbaa9ac	0.091143936
159	0x3e99be47	0.30027983
160	0x3ec22270	0.379169
161	0x3e944822	0.28961283
162	0x3c11e211	0.008903996
163	0xbecd7af4	-0.40132868
164	0x3d8059db	0.062671386
165	0x3e497c83	0.19676404
166	0xbe469149	-0.1939136
167	0xbf1d53e0	-0.6145611
168	0xbee5d117	-0.44886085
169	0xbc58be11	-0.013228909
170	0xbda4e594	-0.08051601
171	0xbd14ae7b	-0.03629921
172	0x3ed48db2	0.41514355
173	0xbc28580d	-0.010274899
174	0x3eb152d1	0.34633496
175	0x3eb3f8e0	0.35150814
176	0xbed9e2ae	-0.42555755
177	0x3c92de08	0.017928138
178	0x3e898dfe	0.26866144
179	0xbe215b6a	-0.15757528
180	0x3dfeff07	0.12450986
181	0x3f0bd1f2	0.54617226
182	0x3de1e4ef	0.11029994
183	0x3e0160c8	0.12634575
184	0xbe9faa1f	-0.3118448
185	0xbd1af080	-0.037827015
186	0x3f158f4f	0.58421797
187	0xbe048783	-0.12942319
188	0xbcfa0250	-0.03051868
189	0x3f0ef824	0.5584738
190	0xbddfe311	-0.10931981
191	0xbdf0c67e	-0.117566094
192	0xbe828c82	-0.25497824
193	0xbe535f3a	-0.20641795
194	0xbcdf9bc2	-0.02729595
195	0xbf0ebac5	-0.5575374
196	0xbee691be	-0.45033067
197	0x3dfa841e	0.122322306
198	0xbc150f57	-0.009097896
199	0xbc98e276	-0.018662672

fc3.bias f4 [2]
0	0x3e0d4175	0.13794501
1	0x3cd716cf	0.026255993
